models/checkpoint_actor_1.pth (torch_old, 183784 bytes, 6 tensors)

fc1.weight f4 [256, 48]
0.4659712 -0.8741846 -0.28982174 -0.34414017 -0.26942566 -1.4425454 -0.2847649 -0.2908022
0.6769886 -1.2316496 0.2234973 -0.41451773 -0.5105178 -2.0376563 0.28531548 -0.32377985
0.7045171 -1.1448022 -0.19913577 0.28753972 -0.7525474 -1.9840804 -0.16057977 0.35763955
1.496418 0.705902 0.037414815 -0.06530014 0.2671069 -1.4954464 0.1322114 -0.05978808
1.6882225 0.63338894 0.11837021 -0.9863403 0.4905791 -2.035924 0.0855189 -0.93930274
1.2773639 0.3177549 -0.53425014 -1.1891106 0.76171446 -1.9790777 -0.48759452 -1.1568435
0.42951277 1.1025422 -0.4075259 -1.6329898 -1.0458188 -0.10775401 -0.37455687 -1.6091038
0.6232542 0.4357019 0.03682995 -1.0782686 -0.4546998 0.5201327 0.12601407 -1.0393703
0.57823735 0.13107921 -0.3462572 -1.7222985 0.33931 0.6425641 -0.3606502 -1.7671307
0.9495402 -0.6122087 0.4463723 -0.20401932 0.9983737 -0.113121554 0.44249937 -0.25353554
1.033908 -0.6608664 0.22670947 -0.36889973 0.4496084 0.4119592 0.19983889 -0.43446186
1.018908 -0.19980426 0.37932378 -0.03268359 -0.44257274 0.6673223 0.30852315 0.0070822802
-1.445858 0.958909 0.05957006 -0.26989183 0.13751462 1.0953788 0.031770732 -0.17706852
-1.1223799 0.89608675 0.09836717 0.7898038 1.1766759 1.8264941 0.06764836 0.707729
-0.5711879 1.1592826 0.27985987 -0.10094856 1.6879177 2.5054932 0.26415807 -0.08613479
0.11161741 -1.942507 0.33533555 1.3511691 -0.17309378 1.0947182 0.40348816 1.3277408
0.40119347 -1.7170974 0.61355615 0.4929228 -1.2222359 1.8433385 0.6753266 0.39451447
0.7001232 -1.1580486 0.2139747 0.72398543 -1.7035842 2.4714956 0.32056475 0.6922438
0.24063563 -1.237099 -0.051190592 -0.30227664 -0.37697557 -0.055775013 -0.0034428365 -0.3679339
0.2466147 -1.1801959 0.009259703 0.77709454 -0.26179418 0.3127367 -0.013175415 0.7997883
0.25520733 -0.77787805 -0.13653009 1.3124444 -0.81526554 1.0659971 -0.23062131 1.3334134
1.2125255 -0.04683771 -0.26906696 0.35043868 0.27858484 -0.09359248 -0.24158555 0.34773672
1.6004934 -0.03580482 0.76804906 0.021920176 0.29227078 0.26819888 0.8023927 -0.04336945
1.78818 -0.1850027 0.7317765 -0.13302319 0.8745447 1.1768745 0.64774 -0.14565212
-0.3449343 -1.4782331 -0.24722363 -0.09912516 -4.165834 0.65577286 -0.18048523 -0.12517646
-0.065241456 -0.5919781 -0.026287388 1.536434 -2.858017 0.86710846 -0.093474366 1.5769114
0.13047302 0.4590508 0.06981079 1.7475134 -1.0448459 1.0457971 0.112227865 1.6813455
-0.04629382 0.31112596 0.3202018 0.10916828 4.095199 0.69277126 0.37970835 0.22947271
-0.23855583 0.29516777 -0.16715273 -0.39758196 2.8513546 0.792887 -0.11305736 -0.4596335
-0.2537288 0.14104833 -0.5024612 -1.0669519 1.102849 1.0202864 -0.44019496 -1.1206155
0.40453598 0.33184323 -0.010930364 0.3617599 -0.5424435 -0.6330072 0.0062381136 0.36029154
0.7243483 0.7291382 0.030682912 -0.008651972 -0.27969244 -0.8798379 0.010262909 -0.012743847
00000000: c793 ee3e 90ca 5fbf 8463 94be 2433 b0be
00000010: 29f2 89be 54a5 b8bf b4cc 91be 07e4 94be
00000020: 204f 2d3f b2a6 9dbf 7adc 643e ab3b d4be
00000030: 4bb1 02bf f668 02c0 df14 923e 79c6 a5be
00000040: 3c5b 343f e188 92bf 3fea 4bbe 6838 933e
00000050: f2a6 40bf 59f6 fdbf 066f 24be 881c b73e
00000060: a08a bf3f feb5 343f 4740 193d 14bc 85bd
00000070: 3cc2 883e ca6a bfbf 6d62 073e 59e4 74bd
00000080: ad17 d83f c725 223f 156c f23d cc80 7cbf
00000090: 2f2d fb3e 944c 02c0 8824 af3d 2576 70bf
000000a0: a980 a33f c5b0 a23e 9ec4 08bf c734 98bf
000000b0: b8ff 423f 6b52 fdbf fda5 f9be 7313 94bf
000000c0: 19e9 db3e 1a20 8d3f 3ca7 d0be cf05 d1bf
000000d0: 64dd 85bf 22ae dcbd ebc5 bfbe 1df7 cdbf
000000e0: 968d 1f3f 5214 df3e 00db 163d b504 8abf
000000f0: 6ace e8be 6b27 053f d509 013e 160a 85bf
00000100: 5d07 143f a139 063e a048 b1be 4774 dcbf
00000110: 0aba ad3e 157f 243f 25a7 b8be 5731 e2bf
00000120: 1115 733f b6b9 1cbf e98a e43e 71ea 50be
00000130: 6b95 7f3f 46ac e7bd 478f e23e 69cf 81be
00000140: 1957 843f 8a2e 29bf 8726 683e 6de0 bcbe
00000150: 1233 e63e 51ec d23e 91a2 4c3e c971 debe
00000160: 946b 823f 7d99 4cbe ba36 c23e 3adf 05bd
00000170: e598 e2be a2d5 2a3f bff6 9d3e 7912 e83b
00000180: e011 b9bf 0f7b 753f bcff 733d 432f 8abe
00000190: a2d0 0c3e 5f35 8c3f 0722 023d 7351 35be
000001a0: 25aa 8fbf f165 653f ba74 c93d 9530 4a3f
000001b0: 519d 963f 8fca e93f 398b 8a3d ba2d 353f
000001c0: 5f39 12bf 5f63 943f cb49 8f3e 1ebe cebd
000001d0: b00d d83f 005a 2040 ba3f 873e 7067 b0bd
000001e0: ab97 e43d 12a4 f8bf 1ab1 ab3e 1cf3 ac3f
000001f0: 7f3f 31be ba1f 8c3f 0096 ce3e 69f3 a93f
00000200: 3b69 cd3e d9c9 dbbf 0412 1d3f 6160 fc3e
00000210: 3a72 9cbf 84f2 eb3f 34e2 2c3f cdfd c93e
00000220: 463b 333f f03a 94bf 2f1c 5b3e 1c57 393f
00000230: 0c0f dabf fc2c 1e40 1021 a43e e436 313f
00000240: 3069 763e 4359 9ebf 3aad 51bd 01c4 9abe
00000250: f102 c1be 5774 64bd 36a1 61bb d561 bcbe
00000260: 9088 7c3e a910 97bf 02b6 173c abef 463f
00000270: e309 86be 061f a03e b2dd 57bc edbe 4c3f
00000280: 89aa 823e 0423 47bf 8bce 0bbe 2efe a73f
00000290: 3eb5 50bf 9872 883f fe27 6cbe 4aad aa3f
000002a0: 0934 9b3f e6d8 3fbd 25c3 89be b36c b33e
000002b0: aca2 8e3e 6aad bfbd 3462 77be 8c0a b23e
000002c0: f8dc cc3f 13a8 12bd dd9e 443f f191 b33c
000002d0: 84a4 953e 5d51 893e 9c69 4d3f 2aa4 31bd
000002e0: 15e3 e43f 5971 3dbe b455 3b3f 3b37 08be
000002f0: 29e2 5f3f d3a3 963f 4ad2 253f d425 15be
00000300: 3b9b b0be be36 bdbf 3128 7dbe 2202 cbbd
00000310: 834e 85c0 bbe0 273f 1fd1 38be 422e 00be
00000320: 509d 85bd e08b 17bf a658 d7bc dfa9 c43f
00000330: c0e9 36c0 d2fa 5d3f 7d6f bfbd 3cd8 c93f
00000340: b89a 053e b508 eb3e f6f8 8e3d 85ae df3f
00000350: 83bd 85bf aedc 853f b9d7 e53d 5436 d73f
00000360: 979e 3dbd e74b 9f3e 7ef1 a33e 9f93 df3d
00000370: df0b 8340 7559 313f 2269 c23e e5fa 6a3e
00000380: fb47 74be 3b20 973e 162a 2bbe dd8f cbbe
00000390: 987c 3640 a4fa 4a3f 9e8a e7bd 1555 ebbe
000003a0: bee8 81be f96e 103e 4ca1 00bf e191 88bf
000003b0: 282a 8d3f bf98 823f 3c61 e1be 5470 8fbf
000003c0: 571f cf3e 5be7 a93e 4515 33bc 9838 b93e
000003d0: 94dd 0abf c30c 22bf 1769 cc3b 2278 b83e
000003e0: e46e 393f cda8 3a3f bb5a fb3c 00c1 0dbc
000003f0: d933 8fbe 0e3d 61bf c325 283c 92cb 50bc

fc1.bias f4 [256]
-0.8585877 -0.9932621 0.106760964 -0.7422625 0.06733411 -1.0956321 -0.5169913 -1.0659477
-0.95128053 -1.0024143 -0.8927477 -0.22419775 -0.31411123 0.10000324 -0.8395752 -0.70807934
-0.7416444 -0.85362977 -0.8802063 -0.68784744 1.2054204 -1.1096375 1.9816529 -0.8526317
-0.5415083 -1.1616195 -0.5926833 -0.9541668 0.09098511 -0.8781596 -1.0530884 -0.51759845
0.513848 0.22529444 -0.36186928 -1.3270274 0.017689994 -0.16110992 -1.3854606 0.16989942
-0.41267854 -0.625555 -0.70987517 -0.7509498 -0.991484 0.021794993 -0.57766026 -1.001236
-0.97772217 -0.01413452 1.7772597 -0.82862055 -0.43670326 -0.55497885 -0.78567296 -0.7087005
-1.0218331 0.15050982 -0.7689859 -0.92916226 -0.97331643 -0.53430563 -0.6196326 -1.1851074
-0.5676711 -0.76083976 -0.4464663 1.1474034 -0.21851721 -0.66797996 -0.6749412 -0.75688803
-0.7009985 -0.51740056 -0.2034366 -1.0022345 -0.86714476 -1.3390126 -0.89175236 -0.68994385
-1.1254622 -1.0423627 -0.6817126 0.22367474 -0.5453566 -0.90731627 -1.094235 -0.33989286
0.15596826 -0.5390805 -0.03667783 -1.2133565 -0.43772736 -0.18004984 -0.07682308 -1.0411972
-1.1443665 -0.7480627 -0.25094837 -0.39267948 -0.62207067 -1.1742147 -0.49265066 1.7363054
-0.57805485 -0.9668923 -0.7211966 -1.0496169 -0.7968692 0.6048355 -0.6591328 -1.2516255
-0.71523875 -0.06680245 -0.35692224 -0.81895363 -1.1215878 -0.7466973 -0.85022384 -0.2740729
-1.0073617 0.067015305 -0.07464128 -0.9077631 -0.7140066 0.28437912 -1.0438651 -1.1963
-0.80588347 -0.7768528 -0.6962007 -0.7778134 -0.82615346 -1.2250757 -0.1329362 -0.37366048
-1.7280949 -1.0647318 -0.40965942 -0.8708057 -0.7715168 -0.32011434 -0.79231715 -0.8985308
-0.07047859 -0.5855995 -0.74193263 -0.6164569 -0.8838341 -0.48757046 0.0812084 -1.0753839
-1.1241494 -0.4305325 -0.4388421 -0.9480049 -0.925089 -0.50004554 -0.61537945 -0.9556205
-0.5559298 -0.4214649 -0.8473404 0.5352523 -0.876228 -0.302277 1.7539804 -0.66356725
-1.2370323 -0.39161086 0.8174476 -1.0693307 -1.0903862 -0.7771681 -1.0061989 -0.5208597
-0.11552656 -0.5617922 -0.2054818 -1.174878 -1.1931576 -0.5430807 0.19054635 -0.95847374
-0.8462192 1.0028092 -0.6945003 -0.3585658 -0.2512434 -0.45858333 -0.19823432 -0.23985863
-0.51998985 -0.40745592 -0.74694633 -0.65879357 -1.1384349 -0.9349334 -0.5740333 -0.47373524
-0.12541175 -0.8327976 -1.3287014 -0.9685299 -0.6794539 -0.4122916 -0.17503443 -1.1323252
-1.0211399 -0.6413999 -1.098325 -1.0996226 -0.69532555 -0.8198519 -0.8816795 -0.56384134
-0.78097796 0.9651011 -1.3615952 -0.7136676 -0.59927934 -1.2128302 -0.8001829 -0.62080556
-0.821123 0.40543324 -0.8050872 -0.7207318 0.3139795 -0.54321617 -0.37282002 -0.6943977
-0.43155167 1.342929 -1.1336584 1.8410497 -0.8409136 -0.21408914 -0.7042597 -0.88810724
-0.38303494 -1.2190351 -0.9300456 -0.43167192 -0.89723766 -0.62586427 -0.69487983 -1.0394081
-1.1943325 -0.52669287 -0.50941926 -0.39562258 -0.6365484 -0.71373314 0.09462539 0.22177534
00000000: 67cc 5bbf 6d46 7ebf 7ea5 da3d ea04 3ebf
00000010: 77e6 893d ac3d 8cbf 8b59 04bf f970 88bf
00000020: 1f87 73bf 1d4f 80bf 1d8b 64bf 1894 65be
00000030: 30d3 a0be 80ce cc3d 66ee 56bf b044 35bf
00000040: 68dc 3dbf 7b87 5abf 3355 61bf c516 30bf
00000050: 374b 9a3f 9a08 8ebf cda6 fd3f 1246 5abf
00000060: 4aa0 0abf f3af 94bf 18ba 17bf 4744 74bf
00000070: 6756 ba3d 11cf 60bf 9acb 86bf 5581 04bf
00000080: 8b8b 033f 96b3 663e ee46 b9be 09dc a9bf
00000090: 9bea 903c 00fa 24be c656 b1bf 1dfa 2d3e
000000a0: 9a4a d3be 5f24 20bf 61ba 35bf 3f3e 40bf
000000b0: e5d1 7dbf 6a8b b23c 8be1 13bf 8028 80bf
000000c0: 004c 7abf 7994 67bc 3f7d e33f 7a20 54bf
000000d0: 9297 dfbe 1813 0ebf dd21 49bf 656d 35bf
000000e0: 6dcb 82bf 3f1f 1a3e 43dc 44bf 94dd 6dbf
000000f0: 442b 79bf 41c8 08bf 3ea0 1ebf 99b1 97bf
00000100: e552 11bf 65c6 42bf 3b97 e4be 1dde 923f
00000110: fac2 5fbe bc00 2bbf f2c8 2cbf 6ac3 41bf
00000120: a374 33bf 5d74 04bf af51 50be 3849 80bf
00000130: 33fd 5dbf c464 abbf e249 64bf 29a0 30bf
00000140: 250f 90bf 246c 85bf b884 2ebf fe0a 653e
00000150: 7d9c 0bbf e145 68bf e40f 8cbf 7006 aebe
00000160: 25b6 1f3e 2e01 0abf 7e3b 16bd 444f 9bbf
00000170: cd1d e0be fc5e 38be 6b55 9dbd f345 85bf
00000180: 9a7a 92bf 0981 3fbf 4e7c 80be 490d c9be
00000190: 0640 1fbf ab4c 96bf b53c fcbe 413f de3f
000001a0: 67fb 13bf 4186 77bf 57a0 38bf d959 86bf
000001b0: 9fff 4bbf 80d6 1a3f edbc 28bf 4435 a0bf
000001c0: e319 37bf b9cf 88bd 83be b6be f2a6 51bf
000001d0: 3090 8fbf 8e27 3fbf 45a8 59bf 4853 8cbe
000001e0: 3af1 80bf 523f 893d 87dd 98bd 2a63 68bf
000001f0: 23c9 36bf 249a 913e 5f9d 85bf 5c20 99bf
00000200: 614e 4ebf d3df 46bf 363a 32bf c71e 47bf
00000210: cb7e 53bf 48cf 9cbf 6d20 08be 6d50 bfbe
00000220: 3732 ddbf 2249 88bf e1be d1be 1fed 5ebf
00000230: 2082 45bf 07e6 a3be 4cd5 4abf 1d06 66bf
00000240: 1457 90bd d9e9 15bf 4cef 3dbf 1fd0 1dbf
00000250: f442 62bf d6a2 f9be 9750 a63d 2ea6 89bf
00000260: 21e4 8fbf c16e dcbe e9af e0be 73b0 72bf
00000270: a2d2 6cbf fc02 00bf 8289 1dbf 8ca3 74bf
00000280: 6a51 0ebf 3fca d7be 4deb 58bf 4b06 093f
00000290: 7a50 60bf 0dc4 9abe 6e82 e03f 8bdf 29bf
000002a0: 1357 9ebf 3881 c8be 3f44 513f d4df 88bf
000002b0: c691 8bbf 7df4 46bf 20cb 80bf 1057 05bf
000002c0: 3099 ecbd 9dd1 0fbf d269 52be 6762 96bf
000002d0: 63b9 98bf 5607 0bbf 951e 433e 895e 75bf
000002e0: d2a1 58bf 0d5c 803f c6ca 31bf f095 b7be
000002f0: faa2 80be 6fcb eabe f0fd 4abe 809d 75be
00000300: 0e1e 05bf 109e d0be e037 3fbf b2a6 28bf
00000310: 3cb8 91bf cc57 6fbf d9f3 12bf 6d8d f2be
00000320: f06b 00be 3932 55bf e312 aabf 93f1 77bf
00000330: b1f0 2dbf e217 d3be 3a3c 33be 08f0 90bf
00000340: b6b4 82bf c932 24bf ea95 8cbf 6fc0 8cbf
00000350: db00 32bf d0e1 51bf bfb5 61bf e857 10bf
00000360: 2cee 47bf de10 773f c048 aebf ebb2 36bf
00000370: 5f6a 19bf 053e 9bbf c9d8 4cbf 1ded 1ebf
00000380: 1e35 52bf f294 cf3e 321a 4ebf e181 38bf
00000390: ecc1 a03e 3710 0bbf 44e2 bebe 0cc4 31bf
000003a0: 57f4 dcbe 19e5 ab3f b81b 91bf 84a7 eb3f
000003b0: 1d46 57bf 2f3a 5bbe 5d4a 34bf ff5a 63bf
000003c0: 281d c4be 5809 9cbf 7817 6ebf 1a04 ddbe
000003d0: 5eb1 65bf a438 20bf a5e3 31bf 530b 85bf
000003e0: e3df 98bf 58d5 06bf 4d69 02bf 0b8f cabe
000003f0: d6f4 22bf 37b7 36bf f5ca c13d 1319 633e

fc2.weight f4 [128, 256]
0.5412725 -0.4818707 -0.17109108 -0.14662257 -1.0134286 0.15166341 -0.11916525 0.3945133
-0.7639313 -0.5658958 -0.092969984 -1.4545202 -0.8748875 -1.0018181 0.21203573 -0.44952533
-0.1281622 -0.3643835 -0.20033473 0.011461299 -0.70388055 -0.0063933344 -0.04229315 -0.294131
-0.15062389 -0.19416265 -0.67277074 0.21189804 -0.5437521 -0.10863393 0.30600163 -0.5496589
-0.009528713 -0.21427609 -0.15010263 -0.7387733 0.04480155 -0.545447 0.3898062 0.29826424
-0.87086 -0.044775087 -0.60398704 -0.35289836 0.6737536 -0.574066 -0.033497922 0.55429786
-0.19934998 -1.0101937 -0.113433845 -0.62796617 -0.50111943 -0.24584003 -0.8206968 -0.48178166
-1.024189 -0.81935245 -0.80853945 0.28094015 -0.38784194 -0.30795032 -1.0683506 -0.6913855
-0.24593848 -0.49494618 -0.17378284 -0.4997759 0.29789075 0.07938541 -0.6403465 -0.14540331
-0.22569983 0.18209273 -0.6229196 0.25729826 -0.0758965 -0.4856365 -0.24803628 0.61101335
-0.31287986 0.20401746 0.4430557 -0.14749196 0.098064266 0.3106299 0.11892263 -1.3637702
-0.39264742 0.2059217 -0.72761965 -1.0857465 0.18205094 0.067121394 -0.67402077 -0.8188453
0.82145077 0.58030665 0.7620044 -0.43998817 0.19066346 -0.8624686 0.16362882 -0.062529966
0.14814064 -0.22507699 0.5916203 -0.46354857 -0.3118583 -0.14888169 -0.15495457 -0.46010694
-0.7538258 -0.18787001 -0.7963138 0.068431385 -0.4034439 -1.4422865 -1.0165688 0.28765485
0.7120125 -0.05263877 -0.649194 0.086735904 0.39879903 -0.8321966 -0.12046066 -0.101118736
-0.0840896 0.3409542 0.17657594 -0.3243882 0.029268965 0.1527781 0.45245913 -0.17315865
-1.6013114 -0.65740865 0.112904355 0.5627552 0.33569103 0.31242204 -0.2664512 0.18385871
-0.9750053 -1.0325785 0.123641655 -0.9297062 -0.7785554 0.7262345 -1.0708278 0.1854957
0.0774218 -0.21037939 0.028237276 -0.8906767 -0.9460578 -0.7836519 -0.34060013 -0.26141694
-0.6163647 1.3512905 0.41773736 -0.4647591 0.021741351 0.16289589 -1.3966262 0.06913141
-0.9619806 -0.90486765 -0.2315893 -0.048725653 -1.0820124 0.37255824 0.09462311 0.1807652
-0.076435156 -0.40456957 0.65568084 0.39731333 0.18719672 -0.13080859 -0.08793451 -0.26394138
0.005756936 -0.04483104 -0.055243656 -0.0127386125 -0.7515107 -0.5170436 0.3652839 -0.27776837
-0.61846775 -0.35246038 -0.23316833 -0.760935 0.0071400166 -0.056371257 -0.37951782 0.41737238
1.174965 -0.3522124 -0.047403462 0.787794 -0.18938749 -1.307359 0.102522746 0.07561099
-1.2041302 -0.21754217 -0.45427316 0.04663224 -0.3476401 0.3757075 -0.45036817 0.29223207
0.36677605 -0.4664073 -0.6088304 -0.061451923 -0.11275778 -0.350577 -1.0522537 -0.8084003
0.20775133 -1.9436976 0.1842307 -0.2641775 -0.20777419 -0.610026 -0.5376248 0.23267536
-0.4968554 0.7917648 0.6392831 -0.5935753 0.6109054 -0.054738343 -0.22247522 0.11584336
0.4911695 0.13525145 -0.09985046 -0.40343264 -0.18139198 0.83204395 -0.0706652 0.4048987
-0.9584415 -0.28288415 -0.16168767 -0.46983534 -0.6652922 -0.27842286 -0.4923433 -0.37112075
00000000: d690 0a3f c2b7 f6be 8032 2fbe 3a24 16be
00000010: 07b8 81bf a74d 1b3e e90c f4bd a6fd c93e
00000020: 0091 43bf 8cde 10bf 0c67 bebd b82d babf
00000030: a1f8 5fbf 933b 80bf e51f 593e 2f28 e6be
00000040: f43c 03be 7990 babe 8c24 4dbe 2cc8 3b3c
00000050: 8431 34bf 2d7f d1bb 953b 2dbd 5798 96be
00000060: 263d 1abe 93d2 46be b43a 2cbf cdfb 583e
00000070: 5633 0bbf 777b debd 3fac 9c3e 72b6 0cbf
00000080: 521e 1cbc 316b 5bbe 81b4 19be 3f20 3dbf
00000090: d581 373d 6aa2 0bbf ae94 c73e 17b6 983e
000000a0: aef0 5ebf 1566 37bd e59e 1abf 18af b4be
000000b0: 1e7b 2c3f fdf5 12bf 1e35 09bd 77e6 0d3f
000000c0: 6722 4cbe 074e 81bf 0150 e8bd 64c2 20bf
000000d0: 5d49 00bf 7dbd 7bbe 2f19 52bf 16ac f6be
000000e0: a018 83bf 15c1 51bf 71fc 4ebf 63d7 8f3e
000000f0: 3893 c6be aaab 9dbe b6bf 88bf a4fe 30bf
00000100: 4cd7 7bbe 9669 fdbe 21f4 31be a0e2 ffbe
00000110: 2385 983e d194 a23d c0ed 23bf 9be4 14be
00000120: db1d 67be 8476 3a3e a977 1fbf 99bc 833e
00000130: a06f 9bbd 59a5 f8be 39fd 7dbe 5f6b 1c3f
00000140: ca31 a0be f4e9 503e 32d8 e23e 2208 17be
00000150: ebd5 c83d e20a 9f3e b58d f33d 0690 aebf
00000160: 1509 c9be 23dd 523e 4845 3abf bef9 8abf
00000170: 906b 3a3e f176 893d a08c 2cbf d89f 51bf
00000180: 994a 523f fa8e 143f b812 433f 2146 e1be
00000190: 483d 433e beca 5cbf 508e 273e b60f 80bd
000001a0: 2eb2 173e 957a 66be 6e74 173f 3d56 edbe
000001b0: e4ab 9fbe 7174 18be 69ac 1ebe 2393 ebbe
000001c0: bafa 40bf ff60 40be 39db 4bbf c125 8c3d
000001d0: 3390 cebe d89c b8bf ed1e 82bf 7f47 933e
000001e0: 7446 363f c09b 57bd 9431 26bf 98a2 b13d
000001f0: 632f cc3e d60a 55bf 14b4 f6bd 5717 cfbd
00000200: 2b37 acbd 8d91 ae3e 53d0 343e 3616 a6be
00000210: 78c5 ef3c dd71 1c3e b9a8 e73e 8050 31be
00000220: c6f7 ccbf ef4b 28bf 663a e73d ba10 103f
00000230: b2df ab3e c8f5 9f3e 4b6c 88be 7545 3c3e
00000240: f399 79bf 882b 84bf d637 fd3d 3a01 6ebf
00000250: 684f 47bf 81ea 393f e310 89bf 96f2 3d3e
00000260: 528f 9e3d b26d 57be dc51 e73c 6303 64bf
00000270: d830 72bf 699d 48bf 2463 aebe 71d8 85be
00000280: 14ca 1dbf 16f7 ac3f ace1 d53e e8f4 edbe
00000290: eb1a b23c 2ece 263e a6c4 b2bf c594 8d3d
000002a0: 5c44 76bf 68a5 67bf bf25 6dbe 8d94 47bd
000002b0: 627f 8abf f4bf be3e c3c9 c13d 831a 393e
000002c0: 098a 9cbd be23 cfbe b3da 273f a76c cb3e
000002d0: 7fb0 3f3e b0f2 05be 0217 b4bd 5323 87be
000002e0: aea4 bc3b c1a0 37bd 2c47 62bd 9db5 50bc
000002f0: 0163 40bf f85c 04bf 7e06 bb3e a837 8ebe
00000300: e753 1ebf b075 b4be aec3 6ebe a3cc 42bf
00000310: cdf6 e93b 8ce5 66bd 2950 c2be d5b1 d53e
00000320: 4165 963f 2f55 b4be 222a 42bd deac 493f
00000330: cbee 41be 8a57 a7bf 72f7 d13d efd9 9a3d
00000340: f020 9abf 60c3 5ebe 7e96 e8be 7301 3f3d
00000350: e2fd b1be bc5c c03e a896 e6be 719f 953e
00000360: 12ca bb3e f0cc eebe 4fdc 1bbf 03b5 7bbd
00000370: 8ded e6bd d47e b3be 40b0 86bf 52f3 4ebf
00000380: c4bc 543e 15cb f8bf f9a6 3c3e 4642 87be
00000390: c2c2 54be aa2a 1cbf c7a1 09bf 7342 6e3e
000003a0: d563 febe 19b1 4a3f 0fa8 233f 8df4 17bf
000003b0: 4c64 1c3f 5035 60bd 8bd0 63be 493f ed3d
000003c0: 927a fb3e 5b7f 0a3e 667e ccbd b98e cebe
000003d0: d2be 39be d500 553f ebb8 90bd e24e cf3e
000003e0: 6c5c 75bf 31d6 90be 7491 25be 428e f0be
000003f0: 9750 2abf 718d 8ebe 6c14 fcbe 8a03 bebe

fc2.bias f4 [128]
-0.5872367 -1.3718534 -1.7116038 -0.06288417 -0.40280956 -0.7333187 -0.15329981 -0.016926616
-0.16531026 -1.9640065 0.08335435 -0.048332945 -1.0297644 -0.73288596 0.6071231 -0.7042506
-0.0939927 -0.23284337 -0.7012367 -1.1130216 -0.93566245 -0.70485705 -0.3417116 -0.9100913
-0.15692315 -0.5888511 -0.6763382 -0.47406512 -0.50962013 0.005446224 -0.11684139 -0.11617181
-0.6187533 -0.7781637 -0.96048844 -1.1113582 -0.14960407 -1.0816537 -0.12785141 0.15602177
-0.61587805 0.16941078 -0.6258573 -0.63076305 -0.023326866 -0.29573035 -0.616823 -0.79627335
-0.8303044 -1.3724701 -0.03794855 -0.43417796 -1.4124562 -0.074774124 -0.11901148 -0.69638014
-0.1824123 -0.18374626 -0.07017556 -0.7639178 -0.6830357 0.11972066 -1.3682685 -0.60494566
-0.8814012 -0.34207988 -0.8809879 -0.6062032 -0.34381926 -0.72618306 -0.1331676 -1.3255792
-1.1304102 -0.21103282 -0.59578854 -0.8401192 -0.17922299 -0.6946877 -0.083469205 -1.0371699
-0.41306826 -0.045014888 -0.16089351 -0.46503636 -1.1086806 -0.20611966 -1.0090439 -0.07365078
-1.1575615 -1.2515743 -0.1842753 -0.35486802 -0.22592367 -1.0642964 -0.8515608 -1.5818417
-0.159422 -1.0067397 -0.76184297 -0.8889499 -0.21543036 -1.0836135 -1.0632681 -0.69142544
-0.06133702 -0.5375884 -0.83900845 -0.26989126 -0.08759165 -1.0977571 -0.06901327 -0.9309829
-0.7422262 -0.0988969 -0.7051634 -1.1092577 -2.658717 -0.07952815 -0.8785087 -1.7510617
-0.9737071 -0.24166875 -0.8750158 -0.28654155 -0.45330384 -0.98670125 -0.39042568 -0.7488656
00000000: 2555 16bf e498 afbf d515 dbbf 6ac9 80bd
00000010: 0e3d cebe c6ba 3bbf a0fa 1cbe b0a9 8abc
00000020: 1847 29be 9164 fbbf afb5 aa3d c4f8 45bd
00000030: 52cf 83bf 6a9e 3bbf 6b6c 1b3f c449 34bf
00000040: 3f7f c0bd 7e6e 6ebe 4084 33bf 7e77 8ebf
00000050: 9387 6fbf 8371 34bf d3f4 aebe befb 68bf
00000060: 76b0 20be f2be 16bf 8024 2dbf aab8 f2be
00000070: 7776 02bf 3d76 b23b 8a4a efbd 7ceb edbd
00000080: 9e66 1ebf bc35 47bf 92e2 75bf fc40 8ebf
00000090: cf31 19be a173 8abf 7beb 02be 2cc4 1f3e
000000a0: 2faa 1dbf 057a 2d3e 2f38 20bf b079 21bf
000000b0: fc17 bfbc f869 97be 1de8 1dbf 92d8 4bbf
000000c0: d48e 54bf 1aad afbf f06f 1bbd 934c debe
000000d0: 5dcb b4bf 2d23 99bd 4abc f3bd f845 32bf
000000e0: 4aca 3abe fb27 3cbe 34b8 8fbd 1e90 43bf
000000f0: 6ddb 2ebf 1b30 f53d 6c23 afbf b8dd 1abf
00000100: 82a3 61bf 1825 afbe 6c88 61bf 2230 1bbf
00000110: 1409 b0be 22e7 39bf 165d 08be 94ac a9bf
00000120: 48b1 90bf fd18 58be 9985 18bf 0d12 57bf
00000130: 3b86 37be 0ed7 31bf e7f1 aabd fcc1 84bf
00000140: af7d d3be 8861 38bd 45c1 24be 3f19 eebe
00000150: 3fe9 8dbf 0811 53be 5a28 81bf 38d6 96bd
00000160: fa2a 94bf 9633 a0bf aab2 3cbe 43b1 b5be
00000170: 8958 67be dd3a 88bf e3ff 59bf ca79 cabf
00000180: 853f 23be d9dc 80bf 2408 43bf 3892 63bf
00000190: c799 5cbe d9b3 8abf 2b19 88bf 4201 31bf
000001a0: 873c 7bbd 659f 09bf 42c9 56bf 302f 8abe
000001b0: 4063 b3bd 4e83 8cbf d456 8dbd e554 6ebf
000001c0: 8902 3ebf 758a cabd 9785 34bf 28fc 8dbf
000001d0: 6b28 2ac0 a8df a2bd f2e5 60bf ca22 e0bf
000001e0: de44 79bf 0378 77be 0901 60bf 93b5 92be
000001f0: 7117 e8be 7498 7cbf e0e5 c7be a8b5 3fbf

fc3.weight f4 [2, 128]
-0.28994837 -0.215917 -1.2066867 -0.0052510705 -0.534414 -0.18010344 0.0017330712 -0.14447406
0.38457927 0.078624345 -0.33870646 -0.025724405 -0.17552914 -0.037119288 0.85838836 -0.1572785
-7.91681e-06 -0.30643514 -0.49336755 -0.2251803 0.30256072 -0.8117632 0.2932401 -0.45598269
-0.69927144 -0.41315386 0.008193674 0.028740657 -1.3475941 -0.49196324 -0.006217996 0.0143821975
0.07036248 0.1332216 0.23092379 -0.00074977544 0.002272099 0.047174077 0.016188597 0.29710615
-0.20482737 0.26729417 0.57407004 0.6892928 -0.012562413 -0.18132319 -0.829464 -0.24906252
-0.01476008 -0.3839043 0.051463727 -0.23759669 -0.8149232 -0.004861255 0.021816323 -0.54437804
-0.008107641 0.07028092 0.015229072 0.32028827 0.2266495 0.7919007 -0.65865433 0.092028804
-0.21171722 -0.03778047 -0.5210395 -0.19687879 0.13164331 -0.86836034 -0.03700278 -0.32027212
-0.548182 -0.41961643 -0.057208046 0.049045853 0.068645455 -0.9554271 -0.38846734 -0.6048309
0.16692564 -0.0009372255 0.009907316 -0.34525493 0.27374506 -1.643687 -0.23618628 0.02352266
-0.57396066 -0.33944294 -0.016136209 -0.4034864 -0.053160172 -0.5619955 -0.42823115 -0.8320003
0.1343001 -0.72615546 -0.21868601 -0.59930617 -0.38594943 -0.018894698 0.30744928 -0.1401328
0.89783186 0.36920488 -0.28224817 0.536024 0.013083601 0.0042584436 -0.02762305 0.21995549
0.2498881 0.0071794423 -0.1715744 0.81502587 -0.61807793 -0.0029443027 -0.18085563 -0.3694603
-0.49159488 0.047934376 -0.23116656 0.31808418 0.5841258 -0.27811426 0.10502013 -0.336241
0.23772906 -1.3955755 -0.49299505 0.034920383 0.41391668 -0.5140134 0.025649877 0.4685485
1.6251315 -0.96434736 1.6503143 -0.0022003886 1.2522235 -0.12459209 0.5809939 -0.019275479
-0.06974149 -0.9132067 0.15319413 -0.33308932 0.25045276 -0.9062572 0.4899091 0.14902899
-1.1814874 -0.25974843 1.2206508 -0.27983737 -1.065653 -1.19279 0.001533119 0.011910279
0.2584711 0.20247564 -0.3456037 -1.0835139 -0.001877848 -0.2175638 -0.03238621 -1.1464909
-0.55693483 -1.4535481 0.79171216 0.8421878 1.3545485 -0.02225784 -0.67426676 0.1224257
0.28227827 1.145902 0.6235604 0.25489524 -0.8449168 -0.015992979 0.026883634 -0.23664308
-0.05073217 -0.0021975532 0.0056970054 0.90765387 -0.37787595 0.256626 -0.60723054 1.3057393
-0.33160725 1.0148259 1.6184237 -0.75712895 0.1323777 -1.7613176 -0.45340624 -0.9371558
0.19932018 -0.5046487 0.104309805 -0.73409414 -0.060100045 -0.09546705 -0.24947368 -0.25723526
-0.007276624 -0.046834152 -0.013467281 0.44317836 -0.4366221 0.69289476 -0.17017637 0.013377868
1.0462948 -0.1756558 0.18602195 -0.7177727 -0.0117489435 -1.0462936 -0.27286258 -1.0826157
0.102225944 -0.40499035 0.77986187 -0.68586177 -0.6403185 0.70855755 0.43481612 -0.33349326
-0.013418379 0.366167 1.1285455 -0.28029475 0.01653644 0.81885684 -0.0069763144 -1.6568834
0.06311099 -0.0035801742 -0.529962 0.909061 -0.22786874 0.010376004 0.65441793 -0.57997614
0.14691468 -0.32462668 0.48297176 -0.4131451 0.1215726 -0.7540756 -0.09813312 -0.094921894
00000000: 1d74 94be 5919 5dbe b674 9abf 2c11 acbb
00000010: 5bcf 08bf 096d 38be 3828 e33a 02f1 13be
00000020: 93e7 c43e cd05 a13d ef6a adbe fdbb d2bc
00000030: e9bd 33be 650a 18bd 57bf 5b3f 9d0d 21be
00000040: 71d2 04b7 11e5 9cbe ac9a fcbe aa95 66be
00000050: 3de9 9a3e b7cf 4fbf 9123 963e 9076 e9be
00000060: 7403 33bf e788 d3be c23e 063c 8771 eb3c
00000070: f77d acbf 9be2 fbbe 55c0 cbbb 4fa3 6b3c
00000080: 341a 903d 3e6b 083e 4977 6c3e 948c 44ba
00000090: 7fe7 143b 9b39 413d f39d 843c 4c1e 983e
000000a0: 44be 51be c8da 883e 41f6 123f 7e75 303f
000000b0: 94d2 4dbc c9ac 39be c157 54bf 3f0a 7fbe
000000c0: 43d4 71bc 1b8f c4be a1cb 523d 8c4c 73be
000000d0: cf9e 50bf 2a4b 9fbb 25b8 b23c 5c5c 0bbf
000000e0: e9d5 04bc 71ef 8f3d 5c83 793c d3fc a33e
000000f0: ce16 683e 01ba 4a3f 929d 28bf 9979 bc3d
00000100: 66cc 58be b2bf 1abd d862 05bf 989a 49be
00000110: 81cd 063e dd4c 5ebf 3a90 17bd b5fa a3be
00000120: a855 0cbf f7d7 d6be fc52 6abd 4ee4 483d
00000130: fd95 8c3d df96 74bf 31e5 c6be 33d6 1abf
00000140: 8eee 2a3e 23b0 75ba 4c52 223c 41c5 b0be
00000150: 5028 8c3e 5664 d2bf d1da 71be 98b2 c03c
00000160: 16ef 12bf 77cb adbe 1530 84bc c595 cebe
00000170: 7bbe 59bd f0de 0fbf 1d41 dbbe f9fd 54bf
00000180: f785 093e 53e5 39bf 3aef 5fbe 216c 19bf
00000190: 2a9b c5be 0ec9 9abc fe69 9d3e f97e 0fbe
000001a0: 4fd8 653f 6c08 bd3e d582 90be de38 093f
000001b0: 9a5c 563c 6a8a 8b3b bc49 e2bc 033c 613e
000001c0: abe2 7f3e 8741 eb3b 33b1 2fbe 89a5 503f
000001d0: 5b3a 1ebf 34f5 40bb 3832 39be e729 bdbe
000001e0: 53b2 fbbe d656 443d edb6 6cbe eedb a23e
000001f0: 4589 153f fe64 8ebe cb14 d73d c827 acbe
00000200: 3f6f 733e 38a2 b2bf d969 fcbe ad08 0f3d
00000210: e3ec d33e 6296 03bf b11f d23c 97e5 ef3e
00000220: 4f04 d03f 78df 76bf 803d d33f 6534 10bb
00000230: dc48 a03f 232a ffbd 04bc 143f 9ce7 9dbc
00000240: a0d4 8ebd eac7 69bf ecde 1c3e af8a aabe
00000250: 583b 803e 7900 68bf 5ed5 fa3e 0e9b 183e
00000260: fb3a 97bf bffd 84be 493e 9c3f d846 8fbe
00000270: 5167 88bf 58ad 98bf f0f2 c83a 5523 433c
00000280: 5356 843e c655 4f3e f8f2 b0be 95b0 8abf
00000290: 1f22 f6ba 0bc9 5ebe 67a7 04bd 37c0 92bf
000002a0: 4893 0ebf dd0d babf a6ad 4a3f 9f99 573f
000002b0: d861 ad3f 1356 b6bc bf9c 2cbf 53ba fa3d
000002c0: c786 903e ebac 923f a8a1 1f3f a181 823e
000002d0: 784c 58bf b503 83bc 113b dc3c 9052 72be
000002e0: 89cc 4fbd d304 10bb f2ad ba3b 015c 683f
000002f0: f578 c1be 7c64 833e 7673 1bbf 7722 a73f
00000300: 6dc8 a9be d1e5 813f 8228 cf3f 34d3 41bf
00000310: 058e 073e db72 e1bf dd24 e8be 71e9 6fbf
00000320: 971a 4c3e a830 01bf 61a0 d53d 98ed 3bbf
00000330: 772b 76bd 3b84 c3bd 0776 7fbe 57b4 83be
00000340: bf70 eebb 2bd5 3fbd dfa5 5cbc 46e8 e23e
00000350: ef8c dfbe 8d61 313f b742 2ebe d82e 5b3c
00000360: fdec 853f 1ddf 33be 8a7c 3e3e f4bf 37bf
00000370: a47e 40bc f3ec 85bf a5b4 8bbe 2793 8abf
00000380: d65b d13d e55a cfbe 07a5 473f a394 2fbf
00000390: eaeb 23bf 0764 353f 38a0 de3e a1bf aabe
000003a0: c3d8 5bbc 3e7a bb3e 2e74 903f cb82 8fbe
000003b0: 6e77 873c 9aa0 513f 9199 e4bb c114 d4bf
000003c0: 5640 813d 5ba1 6abb 97ab 07bf 39b8 683f
000003d0: 6c56 69be 1d00 2a3c ef87 273f 5179 14bf
000003e0: cd70 163e 7835 a6be 1348 f73e c187 d3be
000003f0: 0efb f83d 190b 41bf 04fa c8bd 6966 c2bd

fc3.bias f4 [2]
0.1471926 -2.102491
00000000: a8b9 163e 368f 06c0
