models/checkpoint_critic_1.pth (torch_old, 185338 bytes, 5 tensors)

fcs1.weight f4 [256, 48]
0.5906053 -1.2095484 -0.18730691 -0.93542904 0.8139371 -1.2469155 -0.20345688 -0.90501875
0.484372 -0.89234155 -0.25192413 -0.4036462 0.27298838 -0.9951288 -0.14548342 -0.4404976
0.9132201 -0.5467776 0.17319776 -0.8104828 -0.58640695 -0.4897219 0.21301898 -0.9000705
2.6634088 0.64405435 0.053448074 0.67138225 -0.884167 -1.3107215 0.01706511 0.7052588
1.9981499 0.57825744 -0.27786502 -0.88183254 -0.3219466 -0.96913874 -0.2988601 -0.8261276
1.8473665 0.58707774 0.010897646 0.29850006 0.5436185 -0.490839 0.017801128 0.375341
-0.53524816 0.8369801 -0.05434702 -0.25602415 -0.11661003 -0.5479188 -0.08648648 -0.1835001
-0.29174757 0.84335333 -0.0029268484 0.15026188 -0.18812864 -0.73867327 -0.010819419 0.16818553
-0.5047797 1.059731 -0.08201965 -0.07901127 0.0903234 -1.9697589 -0.10066756 -0.1617884
0.2971459 3.4917667 0.07282528 0.052305903 0.03536645 -0.52449584 0.026320396 0.04179593
0.39504358 3.5483649 -0.06140476 0.56696177 0.12808926 -0.69697195 -0.022173954 0.5269137
0.40070394 3.3249335 0.06776711 -0.78495914 -0.08417558 -1.9067208 0.047046047 -0.7607082
-0.12101945 1.4227263 -0.09150469 0.21287082 0.54786044 0.19989757 -0.10560585 0.3073588
0.14973168 1.9775869 -0.151823 -0.17213055 0.08051884 -0.6506138 -0.05273155 -0.1934734
0.3868322 2.0724077 -0.103412636 -0.5345741 -0.8513136 -1.8221159 -0.013113233 -0.42109418
0.5481057 1.4936068 -0.06190124 0.4778616 -0.54290116 0.21416739 0.019060977 0.40026048
0.36014512 2.0739527 -0.041414022 0.11864838 -0.05559887 -0.67058367 -0.055294942 0.12700103
0.27593094 2.5463526 0.2200708 0.50583756 0.87186384 -1.7853162 0.24092974 0.57055956
-0.044734463 -0.49063265 0.012752422 0.67949045 -1.7810214 -0.85016173 -0.024348376 0.7031834
0.019225061 0.61452204 -0.04237137 0.5269634 -0.15796757 -0.19706708 0.016827162 0.41388538
0.26053575 1.4711695 0.017708886 -1.0483094 1.9741832 1.0670322 -0.04337122 -1.002884
-0.07497764 0.11114079 -0.02680446 -0.034239605 1.7482567 -0.94125134 0.008619942 0.014875347
0.04299557 -0.38420144 0.040976826 0.013788069 0.15955122 -0.16252947 -0.06571257 -0.028635379
0.5488517 0.114180565 -0.012022876 -0.031543072 -1.9449947 1.0462643 -0.02486258 -0.04905852
-0.2224189 -1.6200677 0.035932373 0.29997602 0.34478042 0.0019721955 -0.037364032 0.27505532
0.12287012 -1.7283182 -0.24099013 -0.46266308 0.27469403 -1.4479812 -0.22818223 -0.3737426
0.10270488 -1.4447025 0.012886775 0.09873777 0.13518283 -3.5524907 0.057048593 0.10542487
1.2518207 -0.5513777 -0.10207116 -0.47192025 -0.36553103 0.066480316 -0.09817578 -0.45745608
0.92151976 -0.0049300557 -0.16801038 0.4326609 -0.18969497 -1.532974 -0.07515002 0.53098303
0.98195815 0.5443156 -0.25640544 0.75815845 -0.11306018 -3.6190302 -0.1966075 0.7000281
0.65771437 -0.5034845 -0.18362254 -0.12228304 -0.8346116 -0.076334335 -0.17081092 -0.071849085
0.41202876 -0.8965377 0.014494724 -0.69201225 0.049646694 -0.58363193 0.029926168 -0.6606149
00000000: e931 173f 7bd2 9abf 62cd 3fbe 4778 6fbf
00000010: 2f5e 503f ed9a 9fbf 0057 50be 4faf 67bf
00000020: 9bff f73e 7f70 64bf 33fc 80be b7aa cebe
00000030: 22c5 8b3e c3c0 7ebf 9bf9 14be e788 e1be
00000040: cbc8 693f 9ef9 0bbf c15a 313e cd7b 4fbf
00000050: c41e 16bf d4bc fabe a621 5a3e 056b 66bf
00000060: 4a75 2a40 bfe0 243f 5eec 5a3d b5df 2b3f
00000070: c558 62bf b9c5 a7bf 21cc 8b3c d78b 343f
00000080: 60c3 ff3f ae08 143f 5344 8ebe c7bf 61bf
00000090: 2fd6 a4be 7a19 78bf 3104 99be 197d 53bf
000000a0: 8176 ec3f ba4a 163f 0a8c 323c 00d5 983e
000000b0: 952a 0b3f 404f fbbe acd3 913c b22c c03e
000000c0: 0606 09bf 5444 563f fb9a 5ebd 9915 83be
000000d0: 3dd1 eebd 6844 0cbf d31f b1bd 73e7 3bbe
000000e0: f05f 95be 01e6 573f 5ed0 3fbb 40de 193e
000000f0: cba4 40be b119 3dbf ef43 31bc d438 2c3e
00000100: 3e39 01bf 44a5 873f ebf9 a7bd a9d0 a1bd
00000110: 7afb b83d 0f21 fcbf cb2a cebd dcab 25be
00000120: 8223 983e 1b79 5f40 6c25 953d b73e 563d
00000130: 69dc 103d 5c45 06bf df9d d73c 3632 2b3d
00000140: 2743 ca3e 6918 6340 8f83 7bbd 6824 113f
00000150: d529 033e c16c 32bf 27a6 b5bc d1e3 063f
00000160: 1129 cd3e b6cb 5440 7cc9 8a3d 15f3 48bf
00000170: 3f64 acbd 6d0f f4bf 5bb3 403d c6bd 42bf
00000180: 0cd9 f7bd e51b b63f d066 bbbd cffa 593e
00000190: 9540 0c3f f3b1 4c3e e147 d8bd 225e 9d3e
000001a0: 4353 193e 9121 fd3f 7d77 1bbe fe42 30be
000001b0: 10e7 a43d a08e 26bf 0afd 57bd e41d 46be
000001c0: df0e c63e 54a2 0440 01ca d3bd d9d9 08bf
000001d0: b0ef 59bf 183b e9bf e3d8 56bc a899 d7be
000001e0: a850 0c3f 822e bf3f 288c 7dbd 47aa f43e
000001f0: 92fb 0abf b24e 5b3e c425 9c3c f1ee cc3e
00000200: f164 b83e a4bb 0440 c0a1 29bd ecfd f23d
00000210: a4bb 63bd 5fab 2bbf f37c 62bd 8f0c 023e
00000220: d246 8d3e 71f7 2240 3d5a 613e 927e 013f
00000230: 7832 5f3f 3e85 e4bf 49b6 763e 3110 123f
00000240: 7c3b 37bd 3434 fbbe 89ef 503c 16f3 2d3f
00000250: 82f8 e3bf 33a4 59bf 3f76 c7bc d403 343f
00000260: e07d 9d3c 5151 1d3f 9a8d 2dbd 13e7 063f
00000270: 40c2 21be f4cb 49be 1ed9 893c c9e8 d33e
00000280: f164 853e 484f bc3f 3a12 913c 012f 86bf
00000290: 09b2 fc3f 8394 883f 05a6 31bd 815e 80bf
000002a0: e08d 99bd c89d e33d 0795 dbbc d43e 0cbd
000002b0: e0c6 df3f d9f5 70bf a83a 0d3c bab7 733c
000002c0: 1f1c 303d 0db6 c4be 51d7 273d 5ae7 613c
000002d0: 6561 233e 206e 26be 5094 86bd be94 eabc
000002e0: 8c81 0c3f 80d7 e93d 99fb 44bc 4f33 01bd
000002f0: 96f5 f8bf fdeb 853f 9cac cbbc 96f1 48bd
00000300: c8c1 63be 615e cfbf d32d 133d 7596 993e
00000310: 0f87 b03e f33f 013b 070b 19bd 0dd4 8c3e
00000320: 54a3 fb3d 8839 ddbf 1ec6 76be 2de2 ecbe
00000330: b2a4 8c3e 7357 b9bf 9aa8 69be 315b bfbe
00000340: f056 d23d 03ec b8bf 0d23 533c 0737 ca3d
00000350: 5e6d 0a3e 025c 63c0 c9ab 693d ffe8 d73d
00000360: a93b a03f 1727 0dbf af0a d1bd 889f f1be
00000370: e226 bbbe d526 883d 6210 c9bd af37 eabe
00000380: b8e8 6b3f 4e8c a1bb ea0a 2cbe bb85 dd3e
00000390: 663f 42be 7e38 c4bf 41e8 99bd 81ee 073f
000003a0: 9c61 7b3f 4458 0b3f 9347 83be ac16 423f
000003b0: 188c e7bd 319e 67c0 7a53 49be 0b35 333f
000003c0: f85f 283f 5ce4 00bf 8c07 3cbe 886f fabd
000003d0: 1ba9 55bf 2d55 9cbd 0fe9 2ebe 9d25 93bd
000003e0: 6ff5 d23e 7f83 65bf 477b 6d3c b727 31bf
000003f0: 555a 4b3d e768 15bf b927 f53c 0f1e 29bf

fcs1.bias f4 [256]
-2.0271223 -0.43961477 -1.1980888 -2.5562062 -1.571269 -0.67958814 -1.1985316 -3.0413198
-2.5972507 -2.2426567 -1.8654296 -2.181198 -0.38134137 -1.5960093 -1.671599 -1.6184784
-3.2641718 -0.69702744 -0.58778745 -0.54101837 -1.296273 -1.7939578 -1.453384 -1.1357449
-0.7306613 -1.8006606 -0.6022528 1.3147869 -1.0275617 -1.1810336 -0.98568404 1.7738363
-0.6558002 -0.8932293 -3.3697715 -1.8334328 -1.33854 -1.7079191 0.9610016 -0.5505603
-2.3022678 -0.6033376 -1.9244841 -1.7288206 -2.3821673 -1.5206047 -0.19818532 -3.401476
-1.8584384 -1.8889403 -1.9422439 1.58006 -0.018145494 0.4900447 -2.430219 0.06170237
-1.5879676 -0.3657949 -0.67355615 -1.6639493 -1.6362238 -2.3511097 -1.3085753 -2.9588664
-1.0354942 -0.81987226 -1.5448124 -1.6328249 -1.3026204 -1.366108 -0.15430495 -1.1837214
-1.2874196 -0.91194993 -1.0335066 -1.4838077 -1.6111931 -0.75744075 -1.3278615 -2.962809
-1.784912 -1.4409074 -2.039445 -0.6059612 -2.3972838 -0.05533445 -2.4716296 -0.58022916
0.51018226 -2.6382644 -1.163181 -1.9624326 0.2487019 -0.662947 -1.4372618 -1.2889564
1.2100813 -1.569577 -1.6323339 -2.0941129 -1.4325545 -0.60069436 -1.441638 0.43422267
-1.0366174 -0.88094366 -1.2100912 -1.8471744 -0.6824888 -0.74871397 -1.2820363 -0.9692364
-0.99909884 1.758278 -1.1810539 -1.7768272 -1.0796559 -1.2889966 -1.8225179 -1.5553975
-1.4272451 -0.90182537 -1.5860634 -1.4034563 -0.9764288 -1.9159625 -1.2807763 -0.022734068
-2.704426 -2.270015 -2.8925056 -1.6323106 -0.22418882 -1.6925828 -3.0521374 -0.7607537
-1.3625467 -0.94967127 -0.5392789 -2.0800688 -1.6478791 -2.175098 -2.9010262 -0.4735174
-1.1459146 -1.7918798 -1.9438385 -0.67244273 -1.8574185 -0.13240314 -0.29759914 -0.18978998
-0.9409348 -1.7532189 -1.6462246 -0.6388081 -0.9139038 -0.9210939 -1.2314138 -1.4683157
-1.3663656 -0.97786087 0.11409196 -1.0339578 -1.7555536 -1.5590307 -1.8863425 -0.1233035
-1.4583793 -0.96553546 -1.2584745 -1.5602697 0.492509 -1.3651189 -3.3535247 -2.471872
-1.1039685 -1.1348991 -1.3927548 -1.2649662 0.36503825 -0.5086342 -1.001876 -0.9439207
-1.5826428 0.17957978 -0.72483766 -0.18151625 -1.2109611 -2.310077 -2.2838156 -1.5920542
-1.7028426 -1.0767492 -1.0107614 -1.5443974 -1.0072206 -1.4035063 -0.2113292 -0.94602025
-1.7094433 -0.6395917 -0.30906913 -1.8829831 -0.8733798 -1.1410195 -0.10302609 -1.9716972
-1.5323328 -1.3755195 -1.7804474 -0.9223007 -0.43428513 -0.28860354 -1.7764257 -1.0918411
-2.2266312 -0.8925565 -1.5274014 -0.3906391 -1.4310086 0.7856502 -1.4611274 -1.9945086
-1.2852385 -0.9837768 -1.7269111 -1.0231798 -1.5197221 -0.42684472 -2.2570987 -0.76166666
-1.0105153 -1.3326849 -1.467716 -1.3883148 -1.4249183 1.6981152 -2.1003296 -0.95895046
-1.8861432 -0.6399489 -0.44044498 -0.0494154 -2.4659092 -2.6478517 -2.5296593 -2.722564
-1.0323461 -0.9394365 -2.5224903 -2.5860872 -0.3843361 -2.2319481 -1.2283478 -0.012656686
00000000: 5fbc 01c0 3015 e1be f95a 99bf e298 23c0
00000010: 581f c9bf 7df9 2dbf 7c69 99bf fca4 42c0
00000020: 5b39 26c0 b087 0fc0 66c6 eebf bf98 0bc0
00000030: 2d3f c3be 084a ccbf f5f6 d5bf 4d2a cfbf
00000040: 31e8 50c0 6470 32bf 3d79 16bf 2e80 0abf
00000050: 46ec a5bf 69a0 e5bf 7d08 babf 1760 91bf
00000060: 9e0c 3bbf 0c7c e6bf 3d2d 1abf f04a a83f
00000070: 2487 83bf 1c2c 97bf ca55 7cbf 110d e33f
00000080: 86e2 27bf adaa 64bf 56aa 57c0 edad eabf
00000090: 4755 abbf 189d dabf 3304 763f 85f1 0cbf
000000a0: 5b58 13c0 5574 1abf 7f55 f6bf fe49 ddbf
000000b0: 6e75 18c0 2da3 c2bf 18f1 4abe c8b1 59c0
000000c0: 4fe1 edbf ccc8 f1bf 739b f8bf 683f ca3f
000000d0: dca5 94bc 24e7 fa3e b588 1bc0 a0bb 7c3d
000000e0: 8642 cbbf 7849 bbbe 2d6e 2cbf 4afc d4bf
000000f0: c86f d1bf 9578 16c0 657f a7bf 115e 3dc0
00000100: 138b 84bf 26e3 51bf 6abc c5bf 6800 d1bf
00000110: 44bc a6bf a0dc aebf 1e02 1ebe 2f84 97bf
00000120: 2aca a4bf 8d75 69bf f249 84bf 69ed bdbf
00000130: 933b cebf a3e7 41bf 5ef7 a9bf aa9e 3dc0
00000140: ff77 e4bf a76f b8bf 4486 02c0 4620 1bbf
00000150: 196d 19c0 60a6 62bd 2e2f 1ec0 e689 14bf
00000160: 4e9b 023f 53d9 28c0 1de3 94bf fe30 fbbf
00000170: b6ab 7e3e e5b6 29bf 32f8 b7bf 86fc a4bf
00000180: f2e3 9a3f e6e7 c8bf 51f0 d0bf f205 06c0
00000190: f25d b7bf 1bc7 19bf 9887 b8bf 6f52 de3e
000001a0: e1af 84bf 8685 61bf 45e4 9abf 3670 ecbf
000001b0: 96b7 2ebf b8ab 3fbf c419 a4bf e01f 78bf
000001c0: f1c4 7fbf 410f e13f c62c 97bf 136f e3bf
000001d0: 2a32 8abf d7fd a4bf 4448 e9bf 4417 c7bf
000001e0: f8af b6bf 07de 66bf 2004 cbbf 75a4 b3bf
000001f0: 3df7 79bf 423e f5bf 7af0 a3bf cc3c babc
00000200: 5115 2dc0 ed47 11c0 d01e 39c0 8eef d0bf
00000210: c191 65be 8ea6 d8bf 3856 43c0 c1c0 42bf
00000220: ee67 aebf a81d 73bf 2f0e 0abf d91f 05c0
00000230: b4ed d2bf ce34 0bc0 6aaa 39c0 df70 f2be
00000240: 54ad 92bf 515c e5bf b3cf f8bf 3525 2cbf
00000250: e4bf edbf b094 07be ea5e 98be 4e58 42be
00000260: 1ae1 70bf 7a69 e0bf 7db7 d2bf ed88 23bf
00000270: 99f5 69bf cfcc 6bbf f89e 9dbf c5f1 bbbf
00000280: 11e5 aebf 1755 7abf 0ca9 e93d bb58 84bf
00000290: fbb5 e0bf 518e c7bf ac73 f1bf 8c86 fcbd
000002a0: 2cac babf 552d 77bf b115 a1bf ebb6 c7bf
000002b0: 242a fc3e 37bc aebf 26a0 56c0 2733 1ec0
000002c0: d74e 8dbf 6044 91bf ca45 b2bf 6aea a1bf
000002d0: 4be6 ba3e da35 02bf 793d 80bf c9a4 71bf
000002e0: 0a94 cabf c3e3 373e f68e 39bf 65df 39be
000002f0: c600 9bbf 4dd8 13c0 092a 12c0 6fc8 cbbf
00000300: bff6 d9bf ebd2 89bf a160 81bf d0ae c5bf
00000310: 9bec 80bf 18a6 b3bf af66 58be 622e 72bf
00000320: 0acf dabf 48bc 23bf 4f3e 9ebe 9705 f1bf
00000330: d295 5fbf ed0c 92bf 58ff d2bd 9360 fcbf
00000340: 7b23 c4bf 0611 b0bf b3e5 e3bf e61b 6cbf
00000350: 9f5a debe d8c3 93be eb61 e3bf 73c1 8bbf
00000360: 2081 0ec0 957e 64bf e481 c3bf d901 c8be
00000370: 4a2b b7bf 5f20 493f 3906 bbbf 0f4c ffbf
00000380: b282 a4bf ccd8 7bbf 6c0b ddbf 8ef7 82bf
00000390: 4186 c2bf 648b dabe 4e74 10c0 96fc 42bf
000003a0: 9158 81bf 6b95 aabf 1ede bbbf 4db4 b1bf
000003b0: b963 b6bf d75b d93f cd6b 06c0 c77d 75bf
000003c0: 246d f1bf b1d3 23bf 0182 e1be cd67 4abd
000003d0: 75d1 1dc0 6776 29c0 f0e5 21c0 7d3e 2ec0
000003e0: eb23 84bf e97e 70bf 7b70 21c0 7482 25c0
000003f0: b4c7 c4be 3dd8 0ec0 803a 9dbf fd5d 4fbc

fc2.weight f4 [128, 260]
-0.08340569 -0.23004076 -0.26814646 -0.027914116 -0.17276974 0.16077884 -0.25471818 -0.25255919
0.24361397 0.020409781 -0.45923418 -0.06261985 -0.27891123 -0.08653096 -0.074297845 -0.45645803
-0.1993094 0.068634495 -0.23901898 0.025898445 -1.0180408 -0.33383888 -0.491913 -0.06877701
0.28218958 -0.43602455 -0.48362285 -0.41306517 0.27895567 -0.6127902 -0.69212043 -0.8406502
-0.62210226 -0.14579217 -0.031974006 -1.0125759 -0.27426824 -0.31977838 -0.16942121 -0.073851824
0.36443532 -0.3027441 -0.33426166 0.07225579 -0.24788378 -0.63471884 -0.4992607 -0.8551965
-0.04009811 -0.890867 -0.76213753 -0.6936687 -0.38921666 -0.35632122 -0.24187858 0.21402763
-0.314176 0.066998206 0.0026315998 -0.45070145 0.09871195 0.3681905 -0.2063299 0.032309007
0.011568896 -0.0029017243 -1.1428784 0.31749645 -0.021580517 -0.067299366 -1.2857362 -0.8397577
-0.030304138 -0.15697357 0.13583167 -0.041605398 0.047094353 -0.3991502 -0.030695705 -0.09818919
-0.14929715 -0.17858781 0.22184533 0.03119925 0.34304792 -0.21898004 -0.007669698 -0.31149107
-0.1175611 -0.63957024 3.326261e-05 -0.030835485 -0.06914954 -0.08453215 -0.73041314 -0.31796125
-0.12341721 -0.02716326 -0.40405142 -0.18277109 0.42250818 -1.3715788 0.29174304 -0.37497622
-0.040313583 -0.2245898 -0.8514633 -0.13446909 -0.030720767 0.15995961 0.098230705 0.016494565
-0.90580374 0.13289492 -0.23913655 -0.14190926 -0.2089278 -0.2931315 -0.14552853 -0.030438075
-0.11579035 -0.7107595 0.03300906 -0.19993003 -0.21917716 -0.58703053 0.10135398 -0.27162236
-0.3092745 -0.6796028 0.113149635 0.107126944 -0.32562783 -0.5748059 -0.16351803 0.19824566
-0.38273734 -0.83315605 -0.09681453 0.13593395 -0.4713044 0.6540373 0.07417336 -0.09525501
-0.013318668 -0.37039998 -0.31185454 -0.19234182 0.03537918 -0.46142116 0.043429837 -1.2280836
-0.063526265 -0.072739325 -0.12114783 -0.25473255 -0.32030085 -0.17201176 -0.5277593 0.06285035
-0.569997 -0.5957499 -0.33732545 -0.2056844 0.010839999 0.18140921 0.024878146 -0.24649437
-0.39642343 -0.13322654 -0.89373773 -0.28201878 -2.7814634 -0.31665397 -0.2408087 0.10377862
0.061902944 -0.2389177 -0.52013004 0.35479704 -0.5561898 -0.66584677 -0.24467492 -0.4952165
-0.23497775 0.066597044 -0.042413745 -0.4888928 -0.60337186 -1.1002575 0.34309718 -0.44639677
-0.21266574 -0.40222085 -1.0706065 -0.20972866 -0.1381256 0.19392164 0.27479988 0.25663078
-0.3347417 -0.25232828 -0.4423994 -0.18544616 0.1973575 0.120317124 -1.0953332 -0.32639506
0.14362338 -0.7589575 -0.62746733 -0.020838207 -0.71249896 -0.26497567 -0.49451685 -0.918444
-0.07280288 -0.1854312 0.0032771348 -0.17501001 -0.23245415 0.055497747 -0.1890402 0.06362749
-0.3680922 -0.22783819 0.10064415 0.21038088 -0.28867298 0.16945037 -0.26736096 -0.26953736
-0.41578752 -0.084754564 0.052992586 -0.31638518 -0.30853677 -0.3286199 -0.028745182 -0.07453896
-0.18509595 -0.007895329 -0.09400303 0.007182321 -0.5314379 -0.20857324 -0.19996323 -0.35997513
-0.10489313 -0.41698462 -0.07728557 -0.3895406 0.29961136 -0.099578634 0.16794723 -0.59695715
00000000: 9ad0 aabd ce8f 6bbe 7e4a 89be 25ac e4bc
00000010: 8dea 30be 35a3 243e 6c6a 82be 704f 81be
00000020: f175 793e 6a32 a73c be20 ebbe d63e 80bd
00000030: 74cd 8ebe 2537 b1bd 7829 98bd deb4 e9be
00000040: c317 4cbe 3e90 8c3d 64c1 74be fa28 d43c
00000050: 294f 82bf eeec aabe 05dc fbbe f6da 8cbd
00000060: 277b 903e 9c3e dfbe 6a9d f7be 477d d3be
00000070: 47d3 8e3e d2df 1cbf ce2e 31bf da34 57bf
00000080: 1842 1fbf 8b4a 15be 2df7 02bd 169c 81bf
00000090: e36c 8cbe feb9 a3be c17c 2dbe a03f 97bd
000000a0: 4497 ba3e 4601 9bbe 5824 abbe d8fa 933d
000000b0: 3fd5 7dbe ef7c 22bf 199f ffbe 28ee 5abf
000000c0: ea3d 24bd dc0f 64bf 721b 43bf 4694 31bf
000000d0: 6847 c7be bc6f b6be 05af 77be 0f2a 5b3e
000000e0: addb a0be 5b36 893d eb76 2c3b 57c2 e6be
000000f0: 7e29 ca3d 7783 bc3e 2548 53be 7356 043d
00000100: 778b 3d3c db2a 3ebb d749 92bf e58e a23e
00000110: a0c9 b0bc 40d4 89bd 0193 a4bf 5cfa 56bf
00000120: 6240 f8bc aebd 20be 7517 0b3e 6c6a 2abd
00000130: 02e6 403d 6a5d ccbe 8f75 fbbc 6a17 c9bd
00000140: 5ae1 18be b9df 36be 6c2b 633e 9295 ff3c
00000150: faa3 af3e 4e3c 60be 1752 fbbb c27b 9fbe
00000160: e0c3 f0bd e0ba 23bf 7583 0b38 b39a fcbc
00000170: 469e 8dbd 311f adbd 5bfc 3abf d1cb a2be
00000180: 2ac2 fcbd 7c85 debc d4df cebe 5828 3bbe
00000190: fe52 d83e e58f afbf 585f 953e e2fc bfbe
000001a0: db1f 25bd defa 65be 80f9 59bf 44b2 09be
000001b0: 1eaa fbbc 74cc 233e 2e2d c93d 9c1f 873c
000001c0: c1e2 67bf 9b15 083e 36e0 74be a950 11be
000001d0: 2bf1 55be 5515 96be 6e05 15be 4559 f9bc
000001e0: 7e23 edbd 56f4 35bf 8234 073d 75ba 4cbe
000001f0: fa6f 60be a247 16bf ad92 cf3d 1612 8bbe
00000200: 3a59 9ebe 73fa 2dbf ffba e73d 5f65 db3d
00000210: b1b8 a6be 7b26 13bf 4571 27be e900 4b3e
00000220: 26f6 c3be b749 55bf b246 c6bd 4532 0b3e
00000230: cf4e f1be fd6e 273f 34e8 973d 0f15 c3bd
00000240: 8b36 5abc 11a5 bdbe 66ab 9fbe 41f5 44be
00000250: c2e9 103d 653f ecbe 7ce3 313d d831 9dbf
00000260: 0f1a 82bd 5bf8 94bd 5a1c f8bd 4e6c 82be
00000270: 79fe a3be da23 30be 3c1b 07bf afb7 803d
00000280: 53eb 11bf 1183 18bf ecb5 acbe ee9e 52be
00000290: 409a 313c 56c3 393e 41cd cb3c 0569 7cbe
000002a0: 03f8 cabe 8a6c 08be ffcb 64bf c464 90be
000002b0: 7f03 32c0 7820 a2be 8e96 76be e389 d43d
000002c0: f18d 7d3d d7a6 74be 3e27 05bf f5a7 b53e
000002d0: 7462 0ebf ef74 2abf 108c 7abe 048d fdbe
000002e0: 029e 70be 0864 883d 09ba 2dbd 2850 fabe
000002f0: 9476 1abf 3dd5 8cbf 6faa af3e 1e8e e4be
00000300: 0cc5 59be e4ef cdbe a209 89bf 1cc3 56be
00000310: cc70 0dbe 6593 463e 92b2 8c3e 1c65 833e
00000320: 4463 abbe 2c31 81be 2d82 e2be 99e5 3dbe
00000330: 1618 4a3e d368 f63d e133 8cbf 411d a7be
00000340: 0212 133e 0a4b 42bf b3a1 20bf e3b4 aabc
00000350: 5566 36bf e4aa 87be 5031 fdbe 251f 6bbf
00000360: ad19 95bd ade1 3dbe 33c5 563b d335 33be
00000370: 7608 6ebe 9b51 633d c193 41be 214f 823d
00000380: 9576 bcbe 6a4e 69be 851e ce3d 166e 573e
00000390: f2cc 93be 6684 2d3e 89e3 88be cd00 8abe
000003a0: 1ae2 d4be cd93 adbd c10e 593d 3dfd a1be
000003b0: 88f8 9dbe de40 a8be 047b ebbc e2a7 98bd
000003c0: cb89 3dbe 695b 01bc a984 c0bd ad59 eb3b
000003d0: 500c 08bf 3994 55be 29c3 4cbe a94e b8be
000003e0: 36d2 d6bd 027f d5be e647 9ebd de71 c7be
000003f0: a966 993e e2ef cbbd 5cfa 2b3e 2fd2 18bf

fc2.bias f4 [128]
-0.479696 -0.31583998 -0.2566388 -0.81803644 -0.30195305 -0.20352815 -0.73367125 -0.5178777
-0.14371482 -0.30263492 -0.84721106 0.26201153 -0.83183455 -0.35567367 -0.4257718 -1.5585616
-0.15171683 -0.2702884 -0.3175636 -0.48250267 -0.9414189 -0.7372551 -0.37019956 -0.22835653
-0.60952806 -2.164993 -0.9137721 -0.23653607 -0.56777745 -0.9833249 -0.5788867 -0.55940735
-0.39113328 -2.0773947 -0.36767444 -0.21945432 -1.096671 -0.7993116 -0.3259988 -0.27550018
-0.23869935 -0.47412157 -0.34559444 -0.73517305 -0.5949468 -1.6238921 -1.1220038 -0.26478952
-0.23776141 -0.7019094 -1.7041721 -1.0910724 -0.74734676 1.1937174 -1.0069718 -0.8116622
-0.22364219 -1.7319629 -0.63238704 -1.5333467 -0.80926377 -0.9252948 -0.74287707 -0.23730859
-0.608112 -0.72483593 -0.3217472 1.2493756 -0.6037705 -0.3589245 -1.5310587 0.062012877
-0.6367063 -1.1381607 -0.41463608 -0.44771603 -0.6360917 -0.27134898 -1.0714337 -1.0655746
-1.0099972 -1.1894993 -2.73339 -0.5474388 -1.4395884 -1.0055188 -0.7006924 -0.5818118
3.3260806 -0.5860816 -0.7154087 -0.86483526 -0.79498214 -0.24901134 -0.49689737 -0.6047264
-1.2961121 -0.77608824 -1.0993762 -1.4263933 -0.048617452 -0.53774136 -0.20850568 -0.2066692
-0.47146684 -0.41866016 -0.26518935 -0.29263484 -1.4363337 -0.86043644 -0.37656182 -1.676971
-0.27657425 -0.25370246 -0.3407914 -0.24108917 -1.9828681 -0.41923052 -1.1177235 -0.46955693
-0.7069916 -0.31419742 -0.23824331 -1.1901054 -0.669795 -3.2030036 -0.6116007 -0.85518533
00000000: b79a f5be c7b5 a1be 2966 83be d66a 51bf
00000010: 9799 9abe af69 50be e1d1 3bbf a293 04bf
00000020: fa29 13be f7f2 9abe d3e2 58bf 6026 863e
00000030: 1cf3 54bf dc1a b6be c3fe d9be f27e c7bf
00000040: a85b 1bbe 3e63 8abe b297 a2be 970a f7be
00000050: d400 71bf c0bc 3cbf cc8a bdbe 4bd6 69be
00000060: 080a 1cbf 3f8f 0ac0 f8ec 69bf 8336 72be
00000070: dd59 11bf 2ebb 7bbf eb31 14bf 5235 0fbf
00000080: 9f42 c8be 09f4 04c0 d33f bcbe a2b8 60be
00000090: b75f 8cbf af9f 4cbf 51e9 a6be 5c0e 8dbe
000000a0: 9a6d 74be 10c0 f2be c1f1 b0be 4d34 3cbf
000000b0: 6f4e 18bf b2db cfbf d29d 8fbf 7e92 87be
000000c0: ba77 73be 56b0 33bf 5022 dabf 43a8 8bbf
000000d0: 1e52 3fbf bbcb 983f 74e4 80bf 18c9 4fbf
000000e0: 7502 65be f6b0 ddbf 1ee4 21bf b444 c4bf
000000f0: e92b 4fbf 1fe0 6cbf 312d 3ebf 0601 73be
00000100: 3aad 1bbf d98e 39bf 0dbc a4be 8aeb 9f3f
00000110: b490 1abf f4c4 b7be bbf9 c3bf 3701 7e3d
00000120: 2fff 22bf 40af 91bf 2e4b d4be 093b e5be
00000130: e8d6 22bf 41ee 8abe bd24 89bf c064 88bf
00000140: 9747 81bf 8341 98bf ddef 2ec0 f324 0cbf
00000150: 6f44 b8bf d7b4 80bf 9460 33bf 9ef1 14bf
00000160: 81de 5440 7209 16bf 0625 37bf d865 5dbf
00000170: f383 4bbf d4fc 7ebe 5569 febe 59cf 1abf
00000180: 00e7 a5bf b8ad 46bf 5cb8 8cbf 0e94 b6bf
00000190: 1823 47bd 6ba9 09bf 8382 55be 17a1 53be
000001a0: 1a64 f1be a05a d6be e6c6 87be 3cd4 95be
000001b0: c8d9 b7bf 9045 5cbf b6cc c0be fca6 d6bf
000001c0: 249b 8dbe 4ae5 81be 367c aebe 14e0 76be
000001d0: 9fce fdbf 62a5 d6be 9011 8fbf c469 f0be
000001e0: 67fd 34bf 7cde a0be 0ef6 73be 6055 98bf
000001f0: af77 2bbf 03fe 4cc0 dd91 1cbf 6ded 5abf

fc3.weight f4 [1, 128]
-0.022072447 0.0014620727 0.027040226 -0.023699982 0.029820086 0.0022594389 -0.010016139 -0.0056237555
-0.01415057 0.0029585052 -0.0075980886 -0.0059128706 0.027133862 0.018345121 -0.012538883 0.038524702
0.0021583387 0.030781042 0.0014760975 -0.023557723 0.025908658 -0.012894125 -0.0225769 -0.012288312
0.016494123 0.0027277858 -0.007663321 -0.014252422 -0.00089648593 0.020499917 -0.013509953 0.00802052
-0.00029760101 -0.013251099 0.027230104 -0.019175345 -0.0121686915 -0.026098296 -0.020439273 -0.0092764115
0.0064742314 -0.012205122 -0.016347235 0.015987374 0.026308265 0.007385271 -0.032819603 0.0032086212
0.0022053395 0.024619311 -0.017026287 -0.0018387741 0.0294363 -0.0045441124 -0.004581958 -0.0049800896
0.021129685 -0.0015211197 -0.02009588 -0.055977 -0.007486152 0.0013178193 0.034033317 -0.003514519
0.00607007 -0.0067896233 0.020821275 0.011528083 0.019595841 -0.0031869963 -0.026667146 -0.021937791
-0.003157131 -0.0075921756 0.0065512937 -0.011583575 0.0018608444 -0.018670395 0.025994826 0.003913427
0.018426118 0.030910803 -0.009817277 0.00895967 0.006534815 0.015747262 -0.01854098 0.000599818
0.008547893 0.017498106 0.0014576335 0.029832004 0.020842822 0.0046198936 -0.015992513 -0.010010834
0.007539928 0.013109357 0.022011561 0.011194946 0.0017261239 -0.024642097 0.006474019 -0.017277831
-0.015076019 0.020712161 -0.007045125 -0.00919886 -0.01849241 -0.0042040506 0.015108786 -0.015133066
0.02811801 0.019109793 0.00689723 -0.011711758 -0.00029942227 0.019045703 0.012062266 -0.004691771
0.030251604 -0.013606108 0.004071658 -0.008949624 -0.014182059 -0.013294437 0.021738078 0.0022716415
00000000: 47d1 b4bc 05a3 bf3a 7783 dd3c 7726 c2bc
00000010: 4149 f43c 1813 143b bb1a 24bc 7b47 b8bb
00000020: cbd7 67bc 7be3 413b 63f9 f8bb c1c0 c1bb
00000030: d547 de3c 8248 963c e36f 4dbc 14cc 1d3d
00000040: ea72 0d3b 8628 fc3c 9d79 c13a 20fc c0bc
00000050: 653e d43c e141 53bc 31f3 b8bc eb54 49bc
00000060: af1e 873c a7c4 323b 991c fbbb fe82 69bc
00000070: 2702 6bba 71ef a73c da58 5dbc 8068 033c
00000080: 5507 9cb9 231b 59bc ab11 df3c 9d15 9dbc
00000090: 315f 47bc 18cc d5bc 4370 a7bc 17fc 17bc
000000a0: ca25 d43b fef7 47bc a3ea 85bc f4f7 823c
000000b0: 6e84 d73c 2500 f23b d96d 06bd bb47 523b
000000c0: 7587 103b 70ae c93c b67a 8bbc 0503 f1ba
000000d0: 6524 f13c c7e6 94bb 4024 96bb 0530 a3bb
000000e0: 2918 ad3c 4f60 c7ba 1da0 a4bc 2448 65bd
000000f0: 654e f5bb aeba ac3a 8566 0b3d d853 66bb
00000100: 70e7 c63b 7d7b debb 6191 aa3c 49e0 3c3c
00000110: 7587 a03c eddc 50bb 0f75 dabc e2b6 b3bc
00000120: dee7 4ebb c9c7 f8bb 3cac d63b 09c9 3dbc
00000130: 94e7 f33a a8f2 98bc 1af3 d43c 343c 803b
00000140: 5ff2 963c a738 fd3c a5d8 20bc 94cb 123c
00000150: 0022 d63b 6700 813c 41e3 97bc 1b3d 1d3a
00000160: 760c 0c3c 3058 8f3c 100e bf3a 3f62 f43c
00000170: 91be aa3c 7a62 973b bb02 83bc 7b04 24bc
00000180: 8011 f73b a1c8 563c 9751 b43c 026b 373c
00000190: 1b3f e23a 39de c9bc 0224 d43b 3d8a 8dbc
000001a0: 6801 77bc 8dac a93c cbda e6bb d1b6 16bc
000001b0: 657d 97bc 22c2 89bb d78a 773c aef0 77bc
000001c0: be57 e63c 248c 9c3c 2902 e23b ace2 3fbc
000001d0: c7fb 9cb9 bc05 9c3c cfa0 453c 6ebd 99bb
000001e0: 36d2 f73c 27ec 5ebc 8b6b 853b 72a1 12bc
000001f0: de5b 68bc e9d0 59bc 0e14 b23c d2df 143b
