models/checkpoint_actor_0.pth (torch_old, 183780 bytes, 6 tensors)

fc1.weight f4 [256, 48]
0	0x3f83e4b7	1.0304173
1	0xbf285604	-0.6575625
2	0xbebbd0fb	-0.36682877
3	0xbdb82d2b	-0.0899299
4	0x3e6aae40	0.22918034
5	0xbf82c81b	-1.0217317
6	0xbeb93a56	-0.3617732
7	0xbd15dfed	-0.036590505
8	0x3faa68ae	1.3313196
9	0xbf233add	-0.63761693
10	0xbdbe5bdd	-0.09294865
11	0x3d353391	0.04423863
12	0x3e905085	0.28186432
13	0xbfb5108e	-1.4145677
14	0xbcff0e9e	-0.0311349
15	0x3e0a350e	0.13496801
16	0x3fe103ed	1.7579323
17	0xbf404819	-0.7511001
18	0xbe15b106	-0.1461831
19	0x3d88d0ba	0.066804364
20	0x3ebe03a0	0.3711214
21	0xbff161ff	-1.8858031
22	0xbddc6c6d	-0.10762868
23	0x3e0c3213	0.13690977
24	0x3f29678f	0.6617364
25	0x3f64c376	0.8936075
26	0xbe1ba8ea	-0.15201154
27	0xbf35ea5f	-0.71060747
28	0xbe6d0da9	-0.23149742
29	0xbf898dab	-1.0746359
30	0xbd6a5530	-0.057210147
31	0xbf34818f	-0.7051019
32	0x3f29c819	0.6632095
33	0x3f1d8eaf	0.6154584
34	0x3d77bd53	0.060483288
35	0xbf1793c2	-0.59209836
36	0xbe9a867a	-0.30180722
37	0xbfb4d7cb	-1.4128355
38	0x3ce2632c	0.02763518
39	0xbf0b88fc	-0.54505897
40	0x3f29e45a	0.6636406
41	0x3ee09aa8	0.43867993
42	0xbdd111d6	-0.1020848
43	0xbef370d2	-0.47547013
44	0xbeb9522d	-0.36195508
45	0xbff0be02	-1.8807986
46	0xbd630cc5	-0.0554321
47	0xbee2eba2	-0.443204
48	0x3f724e30	0.94650555
49	0x3f6ac6ec	0.9170978
50	0xbf2b197e	-0.66835773
51	0xbfce035c	-1.6094775
52	0x3f48c701	0.78428656
53	0xbf73e666	-0.95273435
54	0xbf22a8fc	-0.635391
55	0xbfcaf460	-1.5855827
56	0x3f71b36d	0.94414407
57	0x3e9e0f62	0.3087111
58	0xbf193ffc	-0.5986326
59	0xbfbecfd6	-1.4907176
60	0x3eeb27d7	0.45928833
61	0xbeb1e564	-0.34745324
62	0xbf026b5b	-0.5094506
63	0xbfb9d553	-1.4518226
64	0x3f642af1	0.89128023
65	0xbd5e0ca4	-0.054211274
66	0xbe446327	-0.19178449
67	0x3e317fb4	0.17333871
68	0xbc93bec4	-0.0180353
69	0x3f0ac01c	0.54199386
70	0xbe531f0d	-0.20617314
71	0x3e039831	0.12851025
72	0x3fd31d59	1.6493331
73	0x3f7d8b6a	0.99040854
74	0x3e2b10a3	0.16705565
75	0x3ed61a54	0.41816962
76	0xbf54ec43	-0.83173007
77	0xbf75460e	-0.9581002
78	0x3e2718f5	0.16318114
79	0x3ebcc24a	0.3686698
80	0x3f9de5b9	1.2335731
81	0x3f8547f4	1.0412583
82	0xbbc9ef20	-0.006162539
83	0x3ca9f235	0.020745376
84	0xbeedc346	-0.46438044
85	0xbee94761	-0.4556227
86	0xbd07533a	-0.033038355
87	0xbd37962f	-0.04482096
88	0x3f9a8cd1	1.2074224
89	0x3f9e2045	1.2353598
90	0x3e49ea3d	0.19718261
91	0xbd2f1fa9	-0.042754803
92	0xbdae88c1	-0.085221775
93	0x3f11171b	0.5667588
94	0x3e016a82	0.12638286
95	0xbb438b45	-0.002983765
96	0x3f4bd551	0.7962237
97	0xbfb0c203	-1.3809208
98	0xbda875e0	-0.08225608
99	0xbf507177	-0.81423134
100	0xbdab0dba	-0.083522275
101	0xbed67871	-0.41888765
102	0xbde1618e	-0.11004935
103	0xbf38ae3a	-0.7214085
104	0x3f4107e6	0.7540268
105	0xbfd0775f	-1.6286429
106	0xbebfc8fe	-0.37458032
107	0x3d9e3c81	0.07726384
108	0xbf2a32a1	-0.66483504
109	0xbe59bc8e	-0.21263334
110	0xbecf83ae	-0.4053015
111	0xbb9d4bb4	-0.0048002843
112	0x3f5579de	0.8338908
113	0xbfb862db	-1.4405168
114	0x3d9167a0	0.07099843
115	0x3e96981e	0.2941293
116	0xbf838c80	-1.0277252
117	0x3dfef19f	0.12448429
118	0x3d627f65	0.055297274
119	0x3e9e2e70	0.30894804
120	0xbe733e19	-0.23754157
121	0xbfce40f8	-1.6113577
122	0xbe8cdbb3	-0.27511367
123	0xbf22641e	-0.63434017
124	0x3d446236	0.047945224
125	0xbed6cee2	-0.41954714
126	0xbe53eebf	-0.20696543
127	0xbf286351	-0.65776545
128	0xbf0c0edd	-0.5471018
129	0xbfe84fb9	-1.814933
130	0x3b39f039	0.0028371944
131	0xbfa02c3d	-1.25135
132	0x3f1e8891	0.61927134
133	0xbe487e8b	-0.19579522
134	0x3d845596	0.06461637
135	0xbfacc468	-1.3497438
136	0xbea3859f	-0.31937882
137	0xbfec34a2	-1.8453562
138	0xbea04254	-0.31300604
139	0xbf3ab930	-0.72938824
140	0x3f818b51	1.0120641
141	0x3db95481	0.09049321
142	0xbe535e67	-0.2064148
143	0xbf42d9c2	-0.7611352
144	0x3fbfeaed	1.4993569
145	0xbf99f9ee	-1.2029397
146	0x3de935f6	0.11387245
147	0xbf48f595	-0.7849973
148	0xbe4f61b4	-0.20252115
149	0xbfd02306	-1.6260688
150	0x3e257f77	0.16161905
151	0xbf59c3c3	-0.85064334
152	0x3fba20f4	1.4541306
153	0xbfb2eadd	-1.3977925
154	0xbdf73b10	-0.12071812
155	0xbf2d6c2c	-0.6774318
156	0xbdf337b5	-0.1187586
157	0xbfff25a2	-1.993336
158	0xbe12969f	-0.1431527
159	0xbf279c81	-0.6547318
160	0x3fe2ba84	1.771317
161	0xbfa524e0	-1.2901878
162	0x3f2c2249	0.67239815
163	0x3f85616c	1.0420356
164	0xbd7ad23d	-0.061235655
165	0xc002437c	-2.035369
166	0x3f140b89	0.578301
167	0x3f8810bd	1.0630108
168	0x3ed851e0	0.42249966
169	0xbf3c1775	-0.7347329
170	0x3dd6f49d	0.10495875
171	0xbee8d418	-0.45474315
172	0x3dd54616	0.104137585
173	0xbfd4fa36	-1.6638858
174	0x3e079e9d	0.132441
175	0xbeea3639	-0.45744494
176	0x3f0981aa	0.53713477
177	0xbf2a3eb0	-0.66501904
178	0xbe296917	-0.16543995
179	0x3ecd9afc	0.40157306
180	0x3e18d02f	0.14923166
181	0xc0026c63	-2.0378654
182	0xbe063e29	-0.1310965
183	0x3eac2f09	0.33629635
184	0x3f21fecf	0.6327943
185	0xbf105fb9	-0.5639606
186	0xbe82fc1c	-0.2558297
187	0x3f0f5178	0.55983686
188	0x3df6ce6e	0.12051092
189	0xbff65598	-1.9244871
190	0xbeae02b9	-0.33986452
191	0x3f0c15f3	0.5472099
192	0xbd5ae5f2	-0.05344195
193	0xc0039543	-2.0559852
194	0xbe2363db	-0.1595606
195	0x3f1422e8	0.5786576
196	0x3fa081e9	1.2539645
197	0xbef0b5d6	-0.4701373
198	0xbdbe1b1e	-0.09282516
199	0x3f0d7780	0.5526047
200	0x3c1535bc	0.00910705
201	0xbfd844c7	-1.6895989
202	0x3e52550a	0.20540252
203	0xbebee934	-0.37287295
204	0x3f6bb83f	0.9207801
205	0xbddd045d	-0.10791848
206	0x3e0d8856	0.1382154
207	0xbeaa2fd7	-0.33239624
208	0xbe427de6	-0.18993339
209	0xbff237be	-1.8923261
210	0xbe541494	-0.20710975
211	0xbf130c08	-0.57440233
212	0x3e5ae9c6	0.2137824
213	0x3f252fad	0.6452587
214	0xbe28a51e	-0.16469237
215	0xbf23fde8	-0.64059305
216	0xbeb2551c	-0.34830558
217	0x3f8397a7	1.0280656
218	0x3fba6f55	1.4565226
219	0x3f8fb29f	1.1226386
220	0xbfa98bd3	-1.3245796
221	0xbeddc5f2	-0.43315083
222	0x3fc20d3d	1.516029
223	0x3f9f1945	1.2429587
224	0xbe1107e2	-0.14163163
225	0x3fb4a364	1.4112363
226	0x3e984544	0.29740345
227	0x3e184d0a	0.14873138
228	0xbf6d6cb5	-0.92744
229	0xbe3a81ea	-0.18213621
230	0x3eb3f8b8	0.35150695
231	0x3db1906e	0.08670126
232	0xbe8f6755	-0.28008524
233	0x3fc0545b	1.5025743
234	0x3ea07377	0.31338093
235	0xbf09bb4d	-0.53801423
236	0xbe1f7e06	-0.15575418
237	0x3f1ea7a6	0.6197456
238	0x3ec05303	0.37563333
239	0xbf177862	-0.59168065
240	0x3fa9cf0f	1.3266314
241	0x3fa3f1f6	1.2808216
242	0xbd72c49e	-0.05926954
243	0x3f21bb93	0.6317684
244	0xbea8368c	-0.32854116
245	0xbeda9cb1	-0.4269767
246	0xbd2c7155	-0.04210027
247	0x3f215b7c	0.6303022
248	0x3fcf7e61	1.6210443
249	0x3fecf2fd	1.8511654
250	0xbe12d30d	-0.14338322
251	0x3f1d97e8	0.61559916
252	0xbf761d54	-0.961385
253	0xbdd56bff	-0.10420989
254	0xbe27bcc8	-0.16380608
255	0x3f1c8ba7	0.6115059

fc1.bias f4 [256]
0	0xbf5a8aed	-0.85368234
1	0xbfb3f04c	-1.4057708
2	0xbf1fe61c	-0.62460494
3	0xbf90c35c	-1.1309619
4	0x3efa20cf	0.48853156
5	0xbfa0c11e	-1.2558935
6	0xbfb71b5a	-1.4305222
7	0xbf512607	-0.8169865
8	0xbf196e1c	-0.5993364
9	0xbf94cb65	-1.1624571
10	0xbf54206c	-0.8286197
11	0xbf245ea2	-0.642069
12	0xbfa5dd02	-1.2958071
13	0xbd0dcfa1	-0.03462184
14	0xbf78ecaa	-0.9723612
15	0xbfa0503d	-1.2524487
16	0xbf621bbe	-0.8832358
17	0xbfc5f58a	-1.5465558
18	0xbedee674	-0.43535197
19	0xbee0b35a	-0.43886834
20	0xbf02bdc5	-0.51070815
21	0xbf4b7787	-0.7947926
22	0xbf5163ff	-0.81793207
23	0xbf65b006	-0.89721715
24	0xbf572b6d	-0.8405064
25	0xbf8ff553	-1.1246742
26	0xbf8a0101	-1.0781556
27	0x3f72a5e6	0.9478439
28	0xbfb60863	-1.422131
29	0xbfcf4902	-1.6194155
30	0xbf29a84a	-0.66272414
31	0xbf8360b3	-1.0263885
32	0xbf7664ed	-0.9624775
33	0xbf609b26	-0.8773674
34	0xbf518bcc	-0.8185394
35	0xbf3da971	-0.7408667
36	0x3e0a4779	0.13503827
37	0xbe413178	-0.18866527
38	0xbfb3ab5a	-1.4036667
39	0xbf963028	-1.1733446
40	0xbf7efbc1	-0.99602896
41	0xbfa2b200	-1.2710571
42	0x3b116108	0.002218308
43	0xbfad666f	-1.3546885
44	0x3e1e2ed7	0.15447555
45	0xbf213e65	-0.6298583
46	0xbf9cd943	-1.2253803
47	0xbf4d6dce	-0.80245674
48	0xbf679fb8	-0.90478086
49	0xbf696dd0	-0.91183186
50	0xbfc89831	-1.5671445
51	0xbfb35e10	-1.4013081
52	0xbf11d901	-0.56971747
53	0xbf9f0e41	-1.2426225
54	0xbf2d9d98	-0.67818594
55	0xbef972a3	-0.48720273
56	0xbf8f5ab9	-1.1199561
57	0xbf049b8b	-0.5179984
58	0xbf2ac80e	-0.6671151
59	0xbf2ac86e	-0.6671208
60	0xbf6d0e86	-0.92600286
61	0xbf70a163	-0.93996257
62	0xbf7ee422	-0.99566853
63	0xbf52c4ef	-0.82331747
64	0xbf9291cc	-1.1450744
65	0xbf8ef1d8	-1.1167555
66	0xbf767b99	-0.96282345
67	0xbf97b9e3	-1.1853603
68	0xbf97288e	-1.1809251
69	0xbf3bf795	-0.73424655
70	0xbf078a4d	-0.52945405
71	0xbf8f7de5	-1.1210295
72	0xbf956db9	-1.167411
73	0xbf3dc63a	-0.74130595
74	0xbdb6a417	-0.089180164
75	0xbf95b81d	-1.1696812
76	0xbf94592a	-1.1589711
77	0xbfa23704	-1.267304
78	0xbf7a5b87	-0.9779591
79	0xbfa6e68f	-1.3039111
80	0x3fb43ebe	1.4081647
81	0xbf7f5ca3	-0.9975073
82	0xbf4c7c53	-0.79877204
83	0xbf8e1a23	-1.1101726
84	0xbd81b0ba	-0.06332536
85	0xbf5a934f	-0.85381025
86	0xbfc2aff0	-1.5209942
87	0xbf635033	-0.8879425
88	0xbf2e184f	-0.6800584
89	0xbeb7be46	-0.35887355
90	0xbfa41f19	-1.282199
91	0xbeed327d	-0.46327582
92	0xbeed37d4	-0.46331656
93	0x3f4ec556	0.8076986
94	0xbf95eae8	-1.1712313
95	0xbf8a5cb7	-1.0809544
96	0xbf082a61	-0.53189665
97	0xbf6b0291	-0.9180079
98	0xbf942f7e	-1.1576993
99	0xbfbcae33	-1.4740661
100	0xbf904ec2	-1.1274035
101	0x40af2541	5.4732976
102	0xbf249095	-0.64283115
103	0x40076fe2	2.1162038
104	0xbfc287bf	-1.5197676
105	0xbe807599	-0.2508972
106	0xbedf2f8c	-0.43590963
107	0xbf9c0fbb	-1.21923
108	0xbf92792b	-1.1443228
109	0xbf8807ff	-1.062744
110	0x3e6bb01d	0.230164
111	0xbf9a8b55	-1.2073771
112	0xbf649a4d	-0.89297944
113	0xbe0378fb	-0.12839119
114	0xbfafaa6e	-1.3723886
115	0xbfbefb4f	-1.4920443
116	0xbfbe5eed	-1.4872719
117	0xbf8af82b	-1.0856985
118	0xbf8c7978	-1.0974569
119	0xbf63c728	-0.88975763
120	0xbf82dbe7	-1.0223359
121	0xbfa81ae3	-1.3133205
122	0xbd03ceae	-0.032179527
123	0x3ac31ca5	0.0014885856
124	0xbee81d0f	-0.4533467
125	0xbf7d7dc0	-0.99020004
126	0xbf651c2b	-0.89496106
127	0xbf3161e4	-0.69289994
128	0xbf8b5162	-1.0884211
129	0xbf2ec10d	-0.6826332
130	0xbf9a52fc	-1.2056575
131	0xbf511cdd	-0.81684667
132	0xbeea7533	-0.4579254
133	0xbfbd3a36	-1.478339
134	0xbfb0641d	-1.3780552
135	0xbed90b40	-0.42391396
136	0xbf3bc5f1	-0.7334891
137	0xbf7dda75	-0.99161464
138	0xbccb8001	-0.02484131
139	0xbfb5e0a8	-1.4209185
140	0xbfa7516e	-1.3071725
141	0xbfb6fd06	-1.4295967
142	0xbf8457b4	-1.0339265
143	0x3fd18077	1.6367329
144	0xbf793260	-0.9734249
145	0xbe2a666a	-0.1664063
146	0xbf8578dc	-1.0427508
147	0xbf2cd1bf	-0.6750755
148	0xbf7a7536	-0.978351
149	0xbe6301dd	-0.2216868
150	0xbf5a3eae	-0.8525189
151	0xbf6fbfd0	-0.9365206
152	0xbf0e9be6	-0.5570663
153	0xbf0792a7	-0.5295815
154	0xbf3fd02d	-0.74927026
155	0xbfbeefc8	-1.4916925
156	0x3f854d53	1.0414222
157	0xbf80d4c8	-1.0064936
158	0xbfcaf071	-1.5854627
159	0xbfc61504	-1.5475163
160	0xbfd15bd9	-1.6356155
161	0xbf48d55d	-0.78450567
162	0x3d69d394	0.057086542
163	0xbf9aaa5e	-1.2083242
164	0xbf9108ac	-1.1330771
165	0xbe95f3d2	-0.29287583
166	0xbf6f9e0c	-0.93600535
167	0x3d79fc8d	0.061031867
168	0xbfa94429	-1.3223926
169	0xbf8009e7	-1.0003022
170	0xbfc67092	-1.5503104
171	0xbfa22276	-1.2666767
172	0xbf81a83b	-1.0129465
173	0xbec45334	-0.3834473
174	0xbf800e17	-1.00043
175	0xbf77da7b	-0.9681775
176	0xbdd3f7ca	-0.103499964
177	0xbf7c1ca4	-0.984812
178	0xbf926f3f	-1.14402
179	0xbf964251	-1.1738988
180	0xbef7bf03	-0.48387918
181	0x3e6e2a96	0.23258433
182	0xbf8667c1	-1.0500413
183	0xbfad3903	-1.3533024
184	0xbfcf6fba	-1.6205971
185	0xbf2f0e09	-0.6838079
186	0xbf60dcb1	-0.8783675
187	0x3fdbba46	1.7166221
188	0xbf703cff	-0.9384307
189	0xbf688957	-0.90834564
190	0xbf505fae	-0.81395996
191	0xbf93427f	-1.1504668
192	0xbe8df33b	-0.27724633
193	0xbf9167bf	-1.1359786
194	0xbedf1dbb	-0.4357737
195	0xbfce680c	-1.6125503
196	0xbf94cfe5	-1.1625944
197	0xbf6eac9f	-0.9323215
198	0xbf86de1f	-1.0536536
199	0xbfa85c76	-1.3153217
200	0xbf19a48b	-0.600167
201	0xbf72194b	-0.94569844
202	0xbee9cbbd	-0.45663252
203	0xbf4858f5	-0.7826074
204	0xbf834e80	-1.0258331
205	0xbf346e0c	-0.7048042
206	0xbf8d2d36	-1.1029422
207	0xbf8bc7db	-1.0920366
208	0xbe3b8468	-0.18312228
209	0xbf9b1316	-1.21152
210	0xbf65ecd1	-0.8981448
211	0x3f149005	0.58032256
212	0xbf759445	-0.95929366
213	0x3ffd868e	1.9806688
214	0xbf61ac62	-0.8815366
215	0xbf788173	-0.97072524
216	0xbf4858de	-0.782606
217	0xbeae8fb2	-0.34094006
218	0xbfa78814	-1.3088403
219	0xbf68f63f	-0.9100074
220	0xbf6a88a0	-0.91614723
221	0xbf06064e	-0.5235337
222	0xbfaf57ec	-1.3698707
223	0x3fa1a9a7	1.2629899
224	0xbe75dae9	-0.24009289
225	0x3ed47cff	0.41501614
226	0xbf9b8138	-1.214881
227	0xbf821930	-1.0163937
228	0xbf64e46e	-0.89411056
229	0xbfcc319e	-1.5952642
230	0xbf59342c	-0.8484523
231	0xbe7c5d7e	-0.2464504
232	0xbf9d6952	-1.2297766
233	0xbfb8b188	-1.4429178
234	0xbfa86800	-1.3156738
235	0xbf98069d	-1.1877018
236	0xbf8025c0	-1.001152
237	0xbf5e5058	-0.86841345
238	0xbf47b4fb	-0.7801053
239	0x3ec97331	0.39345697
240	0xbf259768	-0.6468415
241	0xbfd23913	-1.6423668
242	0xbf96b033	-1.1772522
243	0xbf9a8188	-1.207078
244	0xbfaad14d	-1.3345124
245	0xbfbe651e	-1.4874609
246	0xbf8e6958	-1.1125898
247	0xbf3c40cf	-0.7353639
248	0x3e682c78	0.22673213
249	0xbe6d51f2	-0.23175791
250	0xbfc0ec41	-1.5072099
251	0xbf61f779	-0.8826824
252	0x3f034c1a	0.51287997
253	0xbfa9b728	-1.325902
254	0xbf5dc7ed	-0.8663319
255	0xbf6bfe2a	-0.921847

fc2.weight f4 [128, 256]
0	0x3e3c7402	0.18403628
1	0xbf9ff276	-1.2495868
2	0x3c80beee	0.015716042
3	0xbec99a37	-0.3937547
4	0x3e336152	0.17517594
5	0xbffa422b	-1.9551443
6	0xbd245182	-0.040116794
7	0xbfcf1f23	-1.6181377
8	0xbfcc22e1	-1.5948144
9	0xbf1f547b	-0.6223828
10	0xbfb9f19e	-1.4526861
11	0xbeea1119	-0.4571617
12	0xbeaaeafa	-0.33382398
13	0xbebd2509	-0.36942318
14	0xbee30007	-0.44335958
15	0xbf635539	-0.88801914
16	0xbdc4314b	-0.095797144
17	0xbd8eb5fc	-0.069683045
18	0xbd155a3a	-0.036463
19	0xbfa751e7	-1.307187
20	0xbf8d4f58	-1.1039839
21	0xbe3e76b8	-0.18599975
22	0xbef2176c	-0.47283494
23	0xbe70ced5	-0.235164
24	0x3ecec294	0.40382826
25	0xbf01fb76	-0.50774324
26	0xbe6a5a15	-0.22885926
27	0x3edaf654	0.42766058
28	0xbf47263e	-0.7779273
29	0xbf655764	-0.8958647
30	0xbd44ab21	-0.048014764
31	0xbfa54c6b	-1.2913946
32	0xbe571f7a	-0.21008101
33	0xbe94105c	-0.2891873
34	0x3eebf513	0.46085414
35	0xbfd199d6	-1.6375072
36	0xbec6b49f	-0.38809678
37	0xbe88e6e3	-0.26738653
38	0xbf57f5b5	-0.84359294
39	0x3e863eaf	0.262197
40	0x3f95d5ae	1.1705835
41	0xbed1e74a	-0.40996772
42	0x3f4373a6	0.7634834
43	0xbdf7bd56	-0.1209666
44	0xc00f1942	-2.2359166
45	0xbd709828	-0.058738858
46	0xbfc7b131	-1.560095
47	0x3f3b36b0	0.7313032
48	0xbea3f957	-0.3202617
49	0x3e8fe1c9	0.28101948
50	0x3ebc5641	0.36784557
51	0x3e293378	0.1652354
52	0x3dcb602b	0.09930452
53	0x3da430b0	0.08017099
54	0x3fa26e71	1.2689954
55	0xc00bb0cd	-2.182666
56	0xbfc63ec7	-1.5487908
57	0xbf67ea32	-0.9059173
58	0xbfbf68e2	-1.4953883
59	0x3e24b420	0.16084337
60	0xbe51fd3b	-0.20506756
61	0xbf8b98d1	-1.0906011
62	0xbf4b2b66	-0.79363096
63	0xbf75fa01	-0.960846
64	0xbf44501c	-0.7668474
65	0xbf2daf25	-0.67845374
66	0xbed37fce	-0.41308445
67	0xbcde75e5	-0.027155826
68	0xbe57046c	-0.2099778
69	0xbf1ced59	-0.61299664
70	0xbf91fcb5	-1.1405245
71	0x3e801405	0.25015274
72	0xbfc73eb7	-1.5566014
73	0xc014839d	-2.320533
74	0x3f084a44	0.5323832
75	0xbf3b0a20	-0.73062325
76	0xbeb75250	-0.35804987
77	0xbe324060	-0.1740737
78	0xbe927a2c	-0.28608835
79	0xbffa42ae	-1.9551599
80	0xbe60ff68	-0.2197243
81	0xbf55bea7	-0.8349404
82	0xbf8ed037	-1.1157292
83	0xbfa6c231	-1.3028013
84	0xbdc76e1c	-0.097377986
85	0xbef759f3	-0.48310813
86	0xbca4e0fc	-0.020126812
87	0xbfbe1fa7	-1.485341
88	0xbf64e694	-0.89414334
89	0xbfa9b952	-1.325968
90	0x3f04cffb	0.51879853
91	0xbfa4393f	-1.282997
92	0xbf463b3e	-0.77434146
93	0xbf1d7aa1	-0.6151524
94	0x3b96ec5c	0.004605813
95	0xbee38014	-0.44433653
96	0xbef8357a	-0.484783
97	0xbe29c71c	-0.1657986
98	0xbc225461	-0.009907813
99	0xbf5bf233	-0.8591644
100	0xbf604455	-0.87604266
101	0x3d8a154a	0.06742342
102	0xbf636fca	-0.8884245
103	0xbea4b289	-0.32167462
104	0xbf0ce88d	-0.55042344
105	0x3e989ab2	0.29805523
106	0x3e845a04	0.25849926
107	0xbf60fa20	-0.8788166
108	0x3e791278	0.24323452
109	0xbf0a8051	-0.54102045
110	0x3e9ab018	0.30212474
111	0x3de66abe	0.11250828
112	0xbefa0e1f	-0.488389
113	0xbf329a7d	-0.6976698
114	0xbf15eb41	-0.58562094
115	0xbe90ea2c	-0.2830366
116	0xbee9cf3d	-0.45665923
117	0xbf4d1b87	-0.8012013
118	0xbf48c746	-0.7842907
119	0x3f8d1552	1.1022131
120	0x3e9510ac	0.29114282
121	0xbeb844f8	-0.3599012
122	0x3d6336b9	0.05547211
123	0x3ecd30ec	0.40076387
124	0x3f182f17	0.59446853
125	0xbef90fe6	-0.48644942
126	0xbf5c8d2c	-0.8615291
127	0xbfb97775	-1.448958
128	0xbf3d7d95	-0.7401975
129	0xbf7696fb	-0.9632413
130	0xbfb28945	-1.3948141
131	0xbfdffa79	-1.7498313
132	0xbf078808	-0.5294194
133	0xbe9b0124	-0.30274308
134	0xbf068737	-0.5255007
135	0x3eb753d7	0.35806152
136	0xbeba14f7	-0.3634412
137	0xbf89b9af	-1.0759791
138	0xbf9dd5b2	-1.233084
139	0xbffc4931	-1.9709836
140	0xbf1a9aac	-0.6039226
141	0x3ed79af8	0.4211042
142	0xbf2e5102	-0.6809236
143	0x3da0b26f	0.078465335
144	0xbf35adeb	-0.709685
145	0xbf85d294	-1.0454888
146	0xbfa77d68	-1.3085146
147	0xbee037bd	-0.43792525
148	0x3dca2592	0.09870447
149	0xbf934ee1	-1.1508447
150	0xbf38bc98	-0.7216277
151	0xbf46d3e2	-0.7766706
152	0xbf07f2ec	-0.53105044
153	0x3f55e641	0.83554465
154	0xbe85e213	-0.26149043
155	0x3e74668b	0.23867242
156	0xbf9e667a	-1.2375023
157	0x3f45b0e9	0.7722307
158	0xc009f9f9	-2.1558821
159	0xbef2726b	-0.4735292
160	0xbf7dc69f	-0.99131197
161	0x3eafcfde	0.34338278
162	0x3f1b35fe	0.6062926
163	0xbe84a3b1	-0.25906137
164	0xbe8f0be3	-0.27938756
165	0x3e9a0a7b	0.3008612
166	0xbf0ecc73	-0.55780715
167	0xbf045bf7	-0.5170283
168	0xbe3f9704	-0.18709952
169	0x3d62f6a8	0.05541101
170	0xbefc90f3	-0.49329337
171	0xbf4a36ec	-0.78990054
172	0x3db2a604	0.08723071
173	0xbf42e57e	-0.7613143
174	0xbf0dce81	-0.55393225
175	0xbe279caf	-0.16368364
176	0xbf120cef	-0.57050985
177	0x3ddfe921	0.10933138
178	0xbf649995	-0.8929685
179	0xc01493ef	-2.3215292
180	0xbf0f1632	-0.5589324
181	0xbe674cc7	-0.22587882
182	0xbf100b9f	-0.5626773
183	0xbf5c0918	-0.85951376
184	0xbee2acdf	-0.44272515
185	0x3e1c7bd8	0.15281618
186	0x3f686765	0.9078277
187	0xbea9d7e2	-0.33172518
188	0xbeae53e6	-0.34048384
189	0xbe724af8	-0.23661411
190	0xbe7d81f8	-0.2475661
191	0xbfbd4371	-1.4786206
192	0xbf36bdba	-0.7138325
193	0xbf1afe13	-0.60543936
194	0xbf38b2c2	-0.7214776
195	0xbf136110	-0.5756998
196	0x3cbdc245	0.023163924
197	0xbf01c880	-0.50696564
198	0xbf806bfc	-1.0032954
199	0xbfb57686	-1.4176795
200	0xbfa5f6f4	-1.2965989
201	0xbdd81581	-0.105509765
202	0xbf0d5851	-0.55212885
203	0x3f8b0d3a	1.0863411
204	0xbf7cc3aa	-0.9873606
205	0xbe37bd6c	-0.17943352
206	0xbe889b64	-0.26681054
207	0x3e959db5	0.29221883
208	0x3dac6f9a	0.08419724
209	0xbf7b2005	-0.9809573
210	0xbedcbe59	-0.43113974
211	0xbfa3ba72	-1.2791274
212	0xbdd57d4b	-0.10424288
213	0xbe410ca2	-0.18852475
214	0x3bbbb3fb	0.0057282425
215	0x3f965bcd	1.1746765
216	0xbf2310f9	-0.63697773
217	0xbf8b555c	-1.0885425
218	0xbf48d427	-0.7844872
219	0xbf6c16e8	-0.9222245
220	0xbf120e18	-0.57052755
221	0x3d89e194	0.06732479
222	0x3e2da7c1	0.16958524
223	0xbf3dd250	-0.74149036
224	0xbf09bb56	-0.53801477
225	0xbe7d982b	-0.24765079
226	0xbd1108d7	-0.03540882
227	0x3efb4ce7	0.4908211
228	0x3edefa73	0.43550453
229	0xbef61ea2	-0.48070246
230	0xbf7661cb	-0.9624297
231	0xbf774d79	-0.9660259
232	0xbed5b69d	-0.41740885
233	0x3cf4d9a8	0.029888943
234	0xbf619d5b	-0.8813073
235	0xbe38a25d	-0.18030687
236	0xbef23847	-0.4730856
237	0xbf00caba	-0.50309336
238	0x3ea6745e	0.32510656
239	0xbeef0538	-0.4668367
240	0xbfa31eb5	-1.2743746
241	0x3eeb5b9f	0.4596834
242	0xbf7c4072	-0.98535836
243	0x3e56bc2f	0.20970224
244	0x3e92caed	0.28670445
245	0xbfb7a8ea	-1.4348423
246	0x3f210330	0.6289549
247	0x3e808dbf	0.25108144
248	0xbe4e2296	-0.20130381
249	0x3fad47a8	1.3537493
250	0xbe99a3a9	-0.30007675
251	0xbf8afe8a	-1.0858929
252	0x3e3da91f	0.18521546
253	0xbf263c8a	-0.64936125
254	0xbf35b5f6	-0.70980775
255	0x3e6701ff	0.22559355

fc2.bias f4 [128]
0	0xbec534b1	-0.38516763
1	0xbf8b01af	-1.0859889
2	0xbf10f98f	-0.56630796
3	0xbf3c9877	-0.7367014
4	0xbf93305a	-1.1499131
5	0xbf2eeede	-0.6833323
6	0xbf0de41c	-0.5542619
7	0x3ea9f0a5	0.3319141
8	0xbeb7c255	-0.3589045
9	0xbf2b6b6f	-0.66960806
10	0xbda49e36	-0.08037989
11	0xbf30f4e1	-0.69123656
12	0xbe849cd4	-0.259009
13	0x3dc9111a	0.09817715
14	0xbf403a43	-0.750889
15	0xbf9a8ac3	-1.2073597
16	0xbf83f80d	-1.0310074
17	0xbf0e1c14	-0.55511594
18	0xbd59e32e	-0.05319517
19	0xbea3f5ae	-0.32023376
20	0xbcc30060	-0.02380389
21	0xbdd064e8	-0.10175496
22	0xbf8b6207	-1.088929
23	0xbef2fef5	-0.47460142
24	0xbf98787e	-1.1911771
25	0xbe33716b	-0.17523734
26	0xbe87f743	-0.26555833
27	0xbf4c923a	-0.79910624
28	0xbe2bbcc5	-0.16771229
29	0xbf6b6a9c	-0.9195955
30	0x3f46487f	0.7745437
31	0xbf2954fa	-0.6614529
32	0xbf5ba47a	-0.85797846
33	0xbe702cbc	-0.23454565
34	0xbf1e9535	-0.6194642
35	0xbf4dacc1	-0.80341727
36	0xbf55e8a2	-0.83558095
37	0xbf8ed77d	-1.1159512
38	0xbf8ed4b5	-1.1158663
39	0x3d21e68d	0.03952651
40	0xbef1393a	-0.47113973
41	0xbf61a819	-0.8814712
42	0xbec92f89	-0.3929408
43	0xbf20dc0d	-0.6283577
44	0xbeda909f	-0.42688462
45	0xbf0a3de5	-0.54000694
46	0xbfda74de	-1.7066915
47	0xbe00bdd2	-0.1257241
48	0xbe42e423	-0.1903234
49	0xbfe35370	-1.7759838
50	0xbd564b35	-0.052317817
51	0xbfaa7cfc	-1.3319392
52	0xbf1c37eb	-0.61022824
53	0xbf4a8ff6	-0.79125917
54	0xbfabd682	-1.3424838
55	0xbe6745ef	-0.22585271
56	0xbf6e1b23	-0.9301016
57	0xbe19c334	-0.1501587
58	0xbf7698f3	-0.9632713
59	0xbf2da888	-0.67835283
60	0xbe1895d6	-0.14900908
61	0xbf653494	-0.8953335
62	0xbe15d600	-0.14632416
63	0xbf767e32	-0.9628631
64	0xbf1dea02	-0.6168519
65	0xbea5fefc	-0.324211
66	0xbf2a51da	-0.66531146
67	0xbeab143d	-0.33413878
68	0xbe9b8e09	-0.30381802
69	0xbf79e26c	-0.9761112
70	0xbfa37c0c	-1.2772231
71	0xbf608495	-0.87702304
72	0xbf9fde76	-1.2489765
73	0xbfb4f656	-1.4137676
74	0xbee0ea5d	-0.43928805
75	0xbf072008	-0.5278325
76	0xbfcaa44e	-1.5831392
77	0xbf1f2d3a	-0.62178385
78	0xbfbcf76d	-1.4763008
79	0xbe9aa24d	-0.3020195
80	0xbdcc4ab0	-0.09975183
81	0xbea3202e	-0.3186049
82	0xbf12db07	-0.5736546
83	0xbf41a398	-0.7564025
84	0xbee773ed	-0.45205632
85	0xbf82591c	-1.0183444
86	0xbe1d553b	-0.15364544
87	0xbf253069	-0.64526993
88	0xbea4e6fb	-0.32207474
89	0xbf801024	-1.0004926
90	0xbfba5160	-1.4556084
91	0xbd9f2d17	-0.07772272
92	0xbdddec0e	-0.108360395
93	0xbf1fcf28	-0.6242547
94	0xbe6697e1	-0.22518875
95	0xbef89bb3	-0.4855629
96	0xbfa036dd	-1.2516743
97	0xbeef52f8	-0.46742988
98	0xbf9344c5	-1.1505362
99	0xbeb66c22	-0.35629374
100	0xbe9e2fd8	-0.30895877
101	0xbce80f60	-0.028327644
102	0xbed4e115	-0.41577974
103	0xbea9800b	-0.33105502
104	0xbf1d5f83	-0.61473864
105	0xbf59584a	-0.84900343
106	0xbf2eb2d9	-0.6824165
107	0xbf5fc36d	-0.8740757
108	0xbf416a81	-0.7555314
109	0xbe9fe87b	-0.31232056
110	0xbf299ee1	-0.66258055
111	0xbe6fb2a0	-0.23407984
112	0xbfca262a	-1.5792897
113	0xbd8a6145	-0.06756834
114	0xbdafad85	-0.08578018
115	0xbe0b163c	-0.135827
116	0xbf5eb0c4	-0.8698847
117	0x3d59b8b4	0.053154662
118	0xbf3f19ac	-0.7464855
119	0xbf85d52e	-1.0455682
120	0xbeb75b81	-0.35812
121	0xbe378417	-0.17921482
122	0xbf4edcc0	-0.8080559
123	0xbf8b8dae	-1.0902612
124	0xbf37c9dd	-0.71792394
125	0xbee3913c	-0.44446743
126	0xbf1954a3	-0.5989477
127	0xbeff724e	-0.49891895

fc3.weight f4 [2, 128]
0	0xbdb085bc	-0.08619258
1	0xbf069d5c	-0.5258386
2	0x3cd04bb5	0.025426725
3	0x3e2ca8fa	0.16861334
4	0x3e2a5689	0.16634573
5	0xbe8ae392	-0.27126747
6	0xbda7e247	-0.08197456
7	0x3c4b91a8	0.012424864
8	0x3e154e20	0.14580584
9	0x3ef16195	0.47144762
10	0xbbfd26bc	-0.0077255648
11	0xbdede16a	-0.1161526
12	0x3c812bce	0.015767958
13	0x3e834180	0.2563591
14	0xbe437ece	-0.19091341
15	0xbe351676	-0.1768435
16	0x3efa24af	0.48856112
17	0x3dcd2405	0.10016636
18	0x3dff7688	0.1247378
19	0x3cd31c0d	0.025770212
20	0xbc2274d4	-0.009915549
21	0x3d846456	0.0646445
22	0xbba96511	-0.0051695188
23	0x3e535028	0.20636046
24	0xbefc1cba	-0.49240667
25	0xbe041e03	-0.12902074
26	0xbed13c85	-0.40866485
27	0xbeaf3fdd	-0.3422841
28	0x3c309993	0.010778802
29	0xbe360e05	-0.17778786
30	0x3ef349db	0.47517285
31	0xbeb6f8f9	-0.35736826
32	0xbf0502d8	-0.51957464
33	0x3f385dd4	0.7201817
34	0xbe700e8b	-0.23443048
35	0xbe8d15d3	-0.27555713
36	0xbf03f305	-0.51542693
37	0x3eadfc99	0.3398178
38	0x3e56da1c	0.2098164
39	0x3c244643	0.010026517
40	0x3cf7e20a	0.030259151
41	0x3e2b938e	0.16755506
42	0x3d69a429	0.05704132
43	0x3ef70c90	0.48251772
44	0x3d82e810	0.06391919
45	0xbd29466f	-0.041326936
46	0x3e29b706	0.16573724
47	0x3c2ec02f	0.010665937
48	0x3cc20b94	0.023687162
49	0xbf1ce83f	-0.6129188
50	0x3e800fc8	0.2501204
51	0x3d23d7b3	0.04000063
52	0x3ddabbab	0.10680326
53	0xbe40daac	-0.18833417
54	0x3eb6c491	0.35696843
55	0x3f3f64a5	0.74762946
56	0x3e360c20	0.17778063
57	0x3e00487b	0.12527649
58	0x3ed8983a	0.4230364
59	0x3cbf8692	0.023379598
60	0x3a8fd6fb	0.0010974103
61	0x3ea1e818	0.31622386
62	0xbe086a5f	-0.13321827
63	0x3eb62f73	0.35583076
64	0x3ef029dc	0.46906936
65	0x3e653a8c	0.22385615
66	0x3dc39bba	0.09551187
67	0xbeadd4e2	-0.3395148
68	0x3e180da0	0.14848948
69	0xbe52f441	-0.20600988
70	0xbe0a1f2a	-0.1348845
71	0xbe1ed316	-0.1551021
72	0x3e0f07fe	0.13967893
73	0x3e3af96a	0.18259206
74	0xbe06dd71	-0.1317041
75	0xbe6871cf	-0.22699665
76	0x3e254304	0.16138846
77	0x3e9bdb9c	0.30440986
78	0x3e7515e8	0.23934138
79	0xbd01109a	-0.031509973
80	0xbc24f5d8	-0.010068379
81	0xbd37a174	-0.044831708
82	0x3e91bbb1	0.2846351
83	0x3db5857c	0.08863351
84	0xbce83fa5	-0.02835066
85	0xbd1cb1da	-0.03825555
86	0x3dc48d94	0.095973164
87	0x3e36782f	0.17819284
88	0x3db5840b	0.08863076
89	0xbcf33767	-0.029689504
90	0x3dc88b08	0.09792143
91	0xbe6d35d3	-0.23165064
92	0x3c8cbfae	0.017181244
93	0x3ceecd37	0.029150588
94	0xbcad8bcb	-0.021184823
95	0xbedc61dd	-0.43043414
96	0x3d88e7c0	0.06684828
97	0x3c66afaf	0.014079972
98	0xbe0e37c1	-0.13888456
99	0xbcdfff4e	-0.027343418
100	0x3eaf7d15	0.34275118
101	0xbb96f792	-0.0046071494
102	0x3b19aac2	0.0023447727
103	0xbd118a19	-0.03553209
104	0x3ee9f747	0.4569647
105	0x3efbaff1	0.4915767
106	0x3e617d7e	0.22020528
107	0x3e5d6c1d	0.21623273
108	0xbe515920	-0.20444155
109	0xbf66cfc5	-0.9016078
110	0x3de19346	0.11014418
111	0xbce2dd4a	-0.02769341
112	0x3ebd70a4	0.37
113	0x3c2ff227	0.010738886
114	0xbd4cca5d	-0.049997676
115	0xbe064d0e	-0.13115332
116	0x3cef3bf1	0.029203387
117	0x3cb809ba	0.022465575
118	0xba394b73	-0.0007068433
119	0x3e362e44	0.17791086
120	0x3e02ba90	0.1276648
121	0xbe9e5eed	-0.30931798
122	0xbe81056a	-0.25199443
123	0xbd4d2a87	-0.050089385
124	0x3ed8ce19	0.4234474
125	0x3ec658dc	0.3873967
126	0xbe1ecbd1	-0.15507437
127	0x3e1efe87	0.15526782
128	0xbe8023ea	-0.250274
129	0xbe2a32ff	-0.16621016
130	0x3f0638e4	0.5243056
131	0xbe882975	-0.2659413
132	0x3ed6f24b	0.4198173
133	0x3f0a4fec	0.540282
134	0x3f94a820	1.1613808
135	0xbfa392e2	-1.27792
136	0xbeddd5ee	-0.43327278
137	0x3d428576	0.04749056
138	0xbce2562b	-0.027628979
139	0xbec70aad	-0.38875332
140	0x3e49543d	0.1966104
141	0x3fc4dc28	1.5379686
142	0x3ed3a24e	0.41334766
143	0x3e7c56cb	0.24642484
144	0x3dcf75a4	0.1012986
145	0x3ebd3e5b	0.36961636
146	0xbf9701b2	-1.1797392
147	0xbf2cba1c	-0.6747148
148	0xbc2d557c	-0.010579463
149	0x3d87a723	0.06623676
150	0xbf6410b0	-0.89087963
151	0xbeb53fc3	-0.3540021
152	0x3f8dcf65	1.1078917
153	0xbf0bc479	-0.5459667
154	0x3f383943	0.71962374
155	0x3eb15b56	0.34639996
156	0x3dcfdb03	0.10149195
157	0x3f5d7e44	0.8652079
158	0x3e638da7	0.22222005
159	0xbf273b67	-0.65325016
160	0xbedfd3b2	-0.43716198
161	0x3f33f422	0.7029439
162	0x3f4538f2	0.77040017
163	0x3f051caa	0.5199686
164	0x3f0cfe7e	0.55075824
165	0x3ebfa9d1	0.37434247
166	0xbf9c0a33	-1.2190613
167	0xbe1c07ca	-0.15237346
168	0xbfcb6ec9	-1.5893184
169	0xbef727af	-0.48272464
170	0x3f3f512a	0.7473322
171	0x3f076af7	0.5289759
172	0x3f2f925c	0.685827
173	0x3f0aa919	0.5416427
174	0xbf9eb260	-1.2398186
175	0xbc87a820	-0.01655966
176	0x3d95178d	0.072798826
177	0x3edb5ebd	0.42845717
178	0xbf3944da	-0.72370684
179	0xbf70dc19	-0.9408584
180	0x3e8dc49c	0.27689064
181	0x3eadbead	0.33934537
182	0x3df0d26c	0.11758885
183	0x3f17665d	0.5914057
184	0x3e0e9f29	0.13927902
185	0x3dfe5951	0.124193795
186	0xbd070ab4	-0.03296919
187	0xbeaef553	-0.34171543
188	0x3db16da1	0.08663488
189	0xbe59a7e2	-0.21255448
190	0xbde4b69e	-0.11167644
191	0x3e32ff2d	0.17480154
192	0x3ec765fe	0.38945
193	0x3f0ba0d6	0.5454229
194	0xbeb682c1	-0.35646632
195	0x3e4f235d	0.20228334
196	0x3f13f58b	0.57796544
197	0xbeb7a4bb	-0.35867867
198	0xbe566eb1	-0.20940663
199	0xbd191d59	-0.037381504
200	0xbed134fa	-0.4086073
201	0xbd5e4e69	-0.054273997
202	0xbeb5e3cb	-0.35525355
203	0x3f66ff15	0.90232974
204	0xbf27d271	-0.65555483
205	0xbe4091ae	-0.18805572
206	0xbeebaf07	-0.46031973
207	0x3f6a161e	0.9144
208	0x3cfd8c5b	0.030950716
209	0x3f24b53a	0.6433903
210	0x3f0f16c2	0.558941
211	0x3e91c226	0.28468436
212	0xbd8500d4	-0.064942986
213	0x3ec07236	0.37587136
214	0x3c296934	0.010340024
215	0xbc4608e0	-0.012087077
216	0xbf191208	-0.5979314
217	0x3e9c9113	0.30579433
218	0xbf52bd40	-0.8232002
219	0x3ebcf7b7	0.3690774
220	0x3ca7afea	0.020469625
221	0xbd63dd29	-0.055630837
222	0x3d708623	0.058721673
223	0x3f0dc444	0.553776
224	0xbece9555	-0.40348306
225	0xbfe08fb3	-1.7543854
226	0x3f3ea469	0.7446962
227	0x3e82f0a7	0.25574228
228	0x3ea8fbbe	0.33004564
229	0x3c9d0971	0.019169541
230	0x3e8eb57a	0.2787283
231	0x3d8c1549	0.06839997
232	0x3e8fa70f	0.28057143
233	0xbf5616be	-0.8362845
234	0x3c03aaa2	0.0080362875
235	0x3ef29531	0.4737945
236	0x3e0d2c16	0.13786349
237	0xbcb698f6	-0.022289734
238	0x3f38a615	0.7212842
239	0xbe16e002	-0.1473389
240	0xbf564a8c	-0.837075
241	0xbd03924d	-0.032121945
242	0xbd870fbe	-0.065947995
243	0x3d263179	0.040574525
244	0x3dcfd65c	0.10148308
245	0xc00c4559	-2.1917326
246	0x3f7cddcb	0.9877593
247	0xbe62bf13	-0.22143202
248	0xbe40f885	-0.18844803
249	0x3f3f567c	0.7474134
250	0xbf544576	-0.8291849
251	0x3e7a6729	0.24453415
252	0xbe995641	-0.2994862
253	0xbf354336	-0.7080568
254	0x3f821679	1.0163108
255	0x3f587d54	0.84566236

fc3.bias f4 [2]
0	0x3f9df7ef	1.2341288
1	0x4078bd5f	3.8865583
