models/checkpoint_critic_0.pth (torch_old, 185314 bytes, 5 tensors)

fcs1.weight f4 [256, 48]
00000000: 39c1 ba3f 5947 15c0 0edb 80be 6c08 593e
00000010: 07f8 7abe 6845 e7bd 9d1f 89be 262e 783e
00000020: 70df bd3f 8a13 f7bf 1828 cdbd 3208 013e
00000030: edf9 6a3e ea22 b5be 6e2d cd3b 9598 b63d
00000040: d973 e93f e577 08c0 7d15 9abe feea f1be
00000050: 6120 c43e 9f9b 20bf 08b1 85be ebe4 0fbf
00000060: d97d 623f bc2b 8dbf 2041 15be 4ac2 46bc
00000070: 8d0f 333e a8f7 34be fa82 3abe 6324 b23c
00000080: 3102 573f f649 86bf a1b0 c1bd 70d5 d33e
00000090: ff8e 8ebe 9fd5 a7be 68b0 ecbd fa59 f03e
000000a0: ff81 753f adde 97bf de0c 603c 532a 21be
000000b0: fa09 dabe ede4 20bf c995 a83c 0cf0 a4bd
000000c0: 2589 b7be c872 0c3f d743 0c3d b425 c4bc
000000d0: 613d 90bf e9a7 213e 4a11 0a3b f3fc 463d
000000e0: 1b93 62be 02f2 293f 5d9f 633c 9319 3fbd
000000f0: 0779 543f 6b01 76bf 8fa7 c43b 225e ebbc
00000100: 02c1 23be 8f78 a93f b210 3fbd af8a 793e
00000110: 4147 f33f 0a43 d5bf f6b9 85bd cfc7 243e
00000120: 3013 a7be a4b7 c2be 9f51 07bc 231b 3b3e
00000130: d1d6 853f fda4 393e 9f4e 60bd 3b58 303e
00000140: 3655 99bd 3f60 cfbe 9b43 a0bc 2054 603e
00000150: d7d7 63bf 0454 6bbf c51f a13c d452 373e
00000160: e187 653e 99a9 b93e 32ba d43b 3b46 803d
00000170: bc7d f2bf 9931 cdbf 5e21 69bc a6ed b13d
00000180: 5dea ba3f d323 5ac0 9ffe 7cbd 83cc 183d
00000190: 431b 4ebf 18ff 99bc fb60 9bbd a5f4 063e
000001a0: a38a a93f a4d8 33c0 fa67 28be 405c 9c3e
000001b0: d6ca 84be 644c 343c 8add 85bd 596e 913e
000001c0: 9558 cb3f 28e6 1cc0 e187 e3bd 2658 c5be
000001d0: 841d db3c 878a cebd 0769 aabc 1340 8bbe
000001e0: 0f9d cf3d 71ac fb3f e7a1 7bbd aeaa 783e
000001f0: 5860 4f3f de72 94bb 1df5 9f3c 5537 293e
00000200: e4b0 8a3e 5f4c 1640 fc7d 72bc 49de 193f
00000210: 1e8d 913e 84ea 12bc 78f2 eabc d601 1c3f
00000220: 94c7 153f 6beb 1b40 22ce 68bd eaaa 1e3e
00000230: d10e cbbb 9929 83bd b35c 13bd 17ef 603e
00000240: abe2 333f 5f73 8fbf e7c9 3bbe 8706 ab3d
00000250: b618 89bf 36e9 a1bf a2c7 61be 0a8f db3d
00000260: 9e2f 4d3f 650b 6cbf 9a90 1ebe cc31 a83e
00000270: 5fe3 e0be dba7 6bbf d1e4 c3bd 6e92 5c3e
00000280: 5a12 b63f 2079 79bf 20e7 cb3e 5dec e7bd
00000290: bd28 163f 4993 76bf 8ea1 ac3e 21d6 8abd
000002a0: dd7d ae3f 2d7f 853f 1814 2abe 025d b23e
000002b0: 54e7 843f c791 adbf dece 05be 8d81 cb3e
000002c0: efd6 483f c2e4 5b3f dc02 62be f859 683e
000002d0: d0b2 e13e 7ed0 62bf faa0 a7be bde9 3c3e
000002e0: 0d55 953f 9c4c 823f 9205 393c 147f b53e
000002f0: 48b0 0ebf 64e4 7bbf 92ee caba 9087 ac3e
00000300: e18c c43e 5e31 5640 8fb7 ea3c 8085 883e
00000310: 05e5 9b3c 6208 22bf 28dd 36bd 0686 773e
00000320: 4caa 313f edae 6140 72f4 46bd 3175 a33e
00000330: 3b96 84be 242e 1bbf db7f 12bd bafc d03e
00000340: e00a 9e3f 156d 6040 9a04 0ebb 975e 383d
00000350: 8a9c 04bf ce73 2fbf a301 2c3d c0c3 533d
00000360: 66d2 f73e 6091 05be 139b 073e d69d 453e
00000370: fbf0 22bd 1784 11bf bf97 0b3e 076e 543e
00000380: 5745 9c3f 3917 a83e d41c 40bc 6a76 5f3f
00000390: 0c1c b03e f0ef 30bf c22d a63d aaa2 783f
000003a0: 1c94 b63f 021a 873f d303 40be dfea 4f3f
000003b0: d546 0a3f 4f7c 40bf a8c7 02be 1709 413f
000003c0: e710 be3e 790b d43f 2f92 7fbc 81c6 4bbd
000003d0: 954a 9b3e 96e1 243e 90a6 36bb ef95 313a
000003e0: 8c1a 693f ba89 0d40 6970 ce3d ad1e 593c
000003f0: 911d 56be 606d dabe dd0a ee3d b4e2 363d
1.4590217 -2.3324797 -0.25167125 0.21194619 -0.24508677 -0.11292535 -0.26781932 0.24236354
1.4833813 -1.9302838 -0.10017413 0.12600783 0.22946902 -0.353782 0.006261519 0.089158215
1.8238479 -2.1323178 -0.3009452 -0.47249597 0.38305953 -0.6273746 -0.26111627 -0.56208676
0.8847328 -1.1028972 -0.14575624 -0.012131283 0.17486401 -0.17672598 -0.18214026 0.021745866
0.8398772 -1.0491321 -0.094575174 0.41373777 -0.27843472 -0.32780167 -0.11557084 0.46943647
0.95901483 -1.186483 0.013674943 -0.15738802 -0.42585737 -0.62849313 0.020579236 -0.08053598
-0.3584682 0.5486264 0.034244385 -0.02394376 -1.1268731 0.15786709 0.0021067434 0.048581075
-0.22126429 0.663849 0.013892976 -0.04665525 0.82997173 -0.96095914 0.00600142 -0.02873141
-0.15991595 1.3239917 -0.04664678 0.2436931 1.900612 -1.6661084 -0.0652961 0.16091846
-0.32631826 -0.38030732 -0.008259206 0.1827207 1.0456182 0.18129344 -0.05476248 0.17221157
-0.07486956 -0.40503117 -0.019563487 0.21907091 -0.8900122 -0.9192507 0.01966847 0.1790269
0.22415115 0.36262205 0.006491923 0.062633954 -1.8944621 -1.6030761 -0.014229147 0.08687906
1.4602772 -3.4084365 -0.061766263 0.037304413 -0.8051035 -0.018798396 -0.07586857 0.13179262
1.3245434 -2.8100977 -0.16445914 0.3053913 -0.25936002 0.011004541 -0.06536396 0.284045
1.5886408 -2.4515476 -0.11109901 -0.38543814 0.026747473 -0.10085016 -0.020802034 -0.27197322
0.101373784 1.9662 -0.0614337 0.24283859 0.81006384 -0.004530295 0.019526059 0.16525014
0.27088082 2.3484113 -0.014800545 0.60104805 0.28427976 -0.008967046 -0.028680071 0.609403
0.5850766 2.4362438 -0.05683721 0.15494886 -0.0061968346 -0.064044185 -0.035977077 0.21966206
0.7026774 -1.1207083 -0.18338738 0.08350854 -1.0710666 -1.2649295 -0.2204881 0.10720642
0.80150783 -0.92204887 -0.15484849 0.32850492 -0.4392347 -0.92053 -0.09565128 0.21540233
1.422435 -0.9745045 0.39824772 -0.113243796 0.5865591 -0.9631849 0.33717006 -0.06779123
1.363216 1.0429436 -0.16609228 0.34836584 1.0383096 -1.3560113 -0.13067195 0.39747277
0.7845296 0.8589593 -0.22071403 0.2269057 0.44081736 -0.88599384 -0.32740003 0.18448539
1.166658 1.0179629 0.011292832 0.35448515 -0.55737734 -0.9839537 -0.0015482476 0.33697176
0.38388732 3.3467631 0.02865198 0.26664352 0.019030103 -0.6329404 -0.044644505 0.2417222
0.6940048 3.5263016 -0.048572965 0.31925347 -0.25895867 -0.6061728 -0.035766464 0.40817815
1.2347069 3.5066578 -0.0021670223 0.045012083 -0.5180136 -0.6853608 0.04199375 0.051700354
0.4840271 -0.13043737 0.1324275 0.19298491 -0.039780598 -0.5684218 0.13632105 0.20745097
1.2208661 0.32830217 -0.011725623 0.8729006 0.34396398 -0.69116116 0.08114196 0.97123206
1.4263949 1.0554812 -0.18751459 0.8121776 0.5401433 -0.7518968 -0.12771475 0.75404495
0.3712227 1.6566001 -0.015598818 -0.049749855 0.3033034 0.16101679 -0.0027870275 0.0006774356
0.9105613 2.2115312 0.10080034 0.013251943 -0.20909716 -0.42661572 0.11623166 0.044649795

fcs1.bias f4 [256]
00000000: d064 c3bf a131 f0bf e5fb b1bf abb0 0ac0
00000010: d3c4 03c0 ec84 05bf 5710 46c0 5e89 90be
00000020: 599c debf c43c 0bbf 30cb 0ac0 2778 a9bf
00000030: de1b a5bf 9568 bbbf ffb2 8dbf 3031 6dbf
00000040: 7773 05c0 d314 cdbf a95c 4440 12a9 53bf
00000050: 20e1 08c0 6bb9 41c0 57dc c2bf c501 ccbf
00000060: 870e 4ebf 5b81 c3bf 2e4a 493f 491f 5c3f
00000070: 32ac efbf ddc4 99be 63fb 67bf 4199 30c0
00000080: 08f2 cdbe e3b6 96bf 1508 95bf 05c6 90bf
00000090: 430b 22c0 a4d3 f2bf 305b a2be a0eb 70bf
000000a0: d6f9 8ebf 53e6 1f40 6ca9 f6bf a8d9 91bf
000000b0: 5c8a f5bf 39b3 14bf 918a 42bf 3f11 d4bf
000000c0: 437d fcbe f058 8cbf dbdd 9fbf e7d9 dcbf
000000d0: 56f7 c3bf 7edf 173e 2669 f53f f09b c8bf
000000e0: cdca a8bf d1f9 abbf 49a9 16c0 7fb4 e6bf
000000f0: 67f9 f9bf 10e3 07c0 e07b aabf c962 1cc0
00000100: fd8d b0bf 0966 a2bf 23ec d7bf 69b1 09c0
00000110: 7f86 e3bf 59c8 a7bf 2aee aabe c434 e1bf
00000120: 312a c8be 10b1 edbf 4c09 acbf ff6b 95bf
00000130: 7295 a7bf cb71 c1bf cc42 a2bf 07d9 42bf
00000140: 2c79 b8bf f533 c5bf 80a2 cabf 6c30 77be
00000150: 198c 16bf 8bab 54bf 911f 8cbf e939 dcbf
00000160: dafa a3bf 3b33 4bbf bc8b 9fbf 8a1a 9abf
00000170: 20a4 4bbf 82b1 8abf 0aa4 96bf cad5 c1bf
00000180: 0cca e5bf 045a 45bf 07f7 6fc0 9886 cebf
00000190: 7f31 02bf dd1e cbbf 2ced 9dbe aed6 0240
000001a0: 7be9 01c0 4bfe ebbf 4d78 8cbe 9053 19c0
000001b0: fb29 cebf 336e 07c0 98a7 e3bf 6fc0 d7be
000001c0: a471 ecbf 2e6f 83c0 f015 f8bf 2b45 d0bf
000001d0: bb36 98bf dc23 c2bf 5b31 2ebf b887 bdbf
000001e0: 2cfb aebf dbe1 92bf 243d 483e ff66 dbbf
000001f0: 18e4 58bf 1fa2 aabf d317 0ec0 0f24 a3bf
00000200: fe4c 733e 1cb4 e4bf a519 69be 91e7 9bbf
00000210: d951 b9bf 8b60 7fbf c8e6 55bf 6e77 c1be
00000220: 410f bcbf 067a c6bf f6e7 dbbf 0f71 04bf
00000230: 213f 01bf 3c28 1ec0 fc5b 37c0 85bd 01c0
00000240: c531 8dbf c5fc 28c0 b31a 17c0 a0b6 b4bd
00000250: e74d 01c0 3868 753e 9edb 5dc0 13f7 7a3f
00000260: 8dac 14c0 9c78 24bf 9c37 c9bd 1c6d c9bf
00000270: 0941 9cbf 2147 b4bf d9ee fbbf 8f61 fbbf
00000280: c109 a0bf bcf7 06be 1e9d cabf 7e11 99bf
00000290: 02d1 c3bf 7950 a4bf 2678 a5bf 4abe 5cbf
000002a0: f245 fbbf 8b6f 91bf d531 b1bf 654d 32c0
000002b0: a85a 83bf 1035 4ebf 586e bfbe fdce 223e
000002c0: 5910 a3bf 2155 a8bf 7102 9bbf 9c48 9ebf
000002d0: 7b48 b4bf 833f f1bf cb40 d4bf cf56 8abf
000002e0: fe9f cabf 3c85 c4bf 5337 05c0 76f4 a5bf
000002f0: 9c7c 10c0 0982 60bf ce03 46bf fb13 14c0
00000300: d1d1 69bf 9bfd fcbf 086c 77bf e23b d3bf
00000310: 2a5e d1bf e93f 1fbf 07dc 57c0 cc0c c3bf
00000320: 56fa 38bf 2510 bbbf 2eb3 dcbf d769 f4bf
00000330: d36c 7abf c835 5bbf 3efc a6bf f4a4 31bf
00000340: 9f3a 9abf 202d 13c0 267f 98bf 5d58 1dc0
00000350: 10b1 b8bf e5a1 c2bd b38a 11c0 00a1 0cc0
00000360: cc2b 0abf 4ff9 1dc0 a929 d3bf d622 9ebf
00000370: 196b 1dc0 3d2f 99bf 255e f8bf a5b4 d5bf
00000380: 69d3 74bf 9715 6fbf d9fc 27bf 1e9e b9bf
00000390: c2f2 67bf 6104 e0bf 3602 adbf 52f2 b5bf
000003a0: 1256 dabf b10a 27c0 34ee bebf 2316 92bf
000003b0: 465a 96bf 4489 0fbf 4517 5bbe 6bde aabf
000003c0: 90c2 9abf acb0 8fbf 4314 05c0 ada9 57c0
000003d0: bd2c f9bf 2a2f 2cbe 05cc 8abf 70f0 13c0
000003e0: b5ae d0bf 48b6 cdbf c5d1 04c0 9d5f c2bf
000003f0: 43ae 8bbf 9158 f4bf 9ff0 a7bf f7a4 c3bf
-1.526514 -1.8765146 -1.3904997 -2.167033 -2.0588882 -0.5215595 -3.0947473 -0.28229803
-1.7391464 -0.54389596 -2.1686516 -1.3239793 -1.2899129 -1.4641291 -1.107025 -0.9265318
-2.0851724 -1.602198 3.0681555 -0.82679856 -2.1387405 -3.026942 -1.5223492 -1.593804
-0.80490917 -1.5273851 0.78628814 0.8598524 -1.8724425 -0.30033007 -0.9061796 -2.7593539
-0.40223718 -1.1774563 -1.1643091 -1.1310431 -2.5319374 -1.8970838 -0.31710196 -0.94109535
-1.1169994 2.4984329 -1.9270453 -1.1394548 -1.9182849 -0.5808597 -0.75992686 -1.6567763
-0.49314317 -1.0964642 -1.248958 -1.7253999 -1.5309856 0.14831349 1.9172714 -1.5672588
-1.318689 -1.3435613 -2.3540823 -1.8023833 -1.9529237 -2.1232338 -1.3319054 -2.4435294
-1.3793331 -1.2687389 -1.6868938 -2.1514533 -1.777542 -1.3108016 -0.3338483 -1.7594228
-0.3909469 -1.856966 -1.3440337 -1.1673583 -1.3092482 -1.5112852 -1.2676635 -0.7611241
-1.4411979 -1.5406481 -1.5830841 -0.24139565 -0.5880752 -0.83074254 -1.0947133 -1.7205173
-1.2810929 -0.79375046 -1.2464519 -1.2039349 -0.7954731 -1.0835421 -1.1768811 -1.5143368
-1.7952285 -0.7709048 -3.7494524 -1.6134825 -0.50856775 -1.5868794 -0.3084501 2.044353
-2.0298755 -1.8436979 -0.27435532 -2.3957253 -1.6106561 -2.116101 -1.778552 -0.42139003
-1.847218 -4.1073217 -1.9381695 -1.6271108 -1.1891702 -1.5167193 -0.6804406 -1.4807043
-1.3670402 -1.1475176 0.19554573 -1.7140807 -0.84723043 -1.3330725 -2.220204 -1.2745379
0.23759839 -1.7867465 -0.22763689 -1.2180043 -1.4478103 -0.9975669 -0.8355527 -0.3778643
-1.4692155 -1.5505989 -1.7180164 -0.51735014 -0.5048695 -2.4712057 -2.8649893 -2.0271924
-1.1030813 -2.6404278 -2.3610046 -0.088238955 -2.0203798 0.23965538 -3.4665294 0.98033255
-2.3230317 -0.64246535 -0.0982506 -1.5736423 -1.2207347 -1.4084207 -1.9682266 -1.9639148
-1.2502977 -0.1318044 -1.5829198 -1.1958463 -1.5298159 -1.2837058 -1.2927291 -0.8622786
-1.9630721 -1.1362165 -1.3843333 -2.7859738 -1.0262041 -0.80549717 -0.37388873 0.15899272
-1.2739364 -1.3150979 -1.211012 -1.2365909 -1.4084619 -1.8847507 -1.6582273 -1.0807742
-1.5830076 -1.535316 -2.0815017 -1.2965229 -2.2576056 -0.8769842 -0.77349555 -2.3137195
-0.9133578 -1.9764894 -0.9664922 -1.650265 -1.6356862 -0.62206894 -3.3728044 -1.523828
-0.7225698 -1.4614302 -1.7242181 -1.90948 -0.978223 -0.8562894 -1.3045728 -0.69392323
-1.204914 -2.2996292 -1.1913803 -2.4585183 -1.4429035 -0.09503535 -2.2740905 -2.1973267
-0.5397308 -2.4683416 -1.6497089 -1.2354381 -2.4596617 -1.1967541 -1.9403731 -1.6695753
-0.95635086 -0.9339232 -0.6562019 -1.4501379 -0.90604794 -1.7501336 -1.35163 -1.4214575
-1.7057517 -2.6100276 -1.4916444 -1.1413006 -1.1746299 -0.56068826 -0.21395595 -1.3349127
-1.2090626 -1.1225791 -2.0793617 -3.3697312 -1.9466778 -0.16814867 -1.0843512 -2.3115501
-1.6303316 -1.6071253 -2.0753033 -1.5185429 -1.0912555 -1.9089528 -1.3120307 -1.5284718

fc2.weight f4 [128, 260]
00000000: 7aa3 49bd de3c a5bc a893 33bd 0918 ebbd
00000010: dde9 d9bc 25db 5bbd d838 1ebc fc85 d6bd
00000020: adc8 9fbd 08b0 31be 38bf f0bd da09 71bd
00000030: ef66 c33c 27f9 fbbb bdf7 a8bd aa03 5f3d
00000040: 1ab8 153d 505f b4bc 895b 25be 48bb 22bb
00000050: afcf 6f3b 3d42 62bd b940 e2bc d20b 29bd
00000060: 62fb e238 c2f8 8bbd 6aef d8bd 9255 49bd
00000070: b8a2 d2bd 68d1 17be d610 953c 0dca a7bd
00000080: 91b8 99bd 1631 c3bc a3b2 aeba 4573 67bd
00000090: 9575 a3bc 702c ef3c 99e4 7a3d 38de 00bd
000000a0: 3c9f b2bd d896 7cbd 5ff3 18be c3d2 b4bd
000000b0: 148a 37bd 410f 4fbd c9d4 b33c 4ef3 e03c
000000c0: f991 94bd e29b 9abd b2e0 f9bb f75d 8ebd
000000d0: ba00 8d3c 99b7 1d3b 589d 8fbd 49f1 b7bd
000000e0: b7b7 10be 57f6 9abc 9938 a93c 714e 5c3d
000000f0: c1f9 9abd 37e1 b6bd 5f31 81bd 94fe 8bbc
00000100: b310 febb cdda b1bd d4b9 98bb 7c22 e5bd
00000110: 0a8e 6dbd 885e 82bd a608 babd 6c27 b2bd
00000120: 5131 273c 722e d8bb 9961 e1bd 7727 0bbd
00000130: 4f39 8fbb 3299 e7bd 020d 7dbd 8ae7 c2ba
00000140: 91f9 cc3c 2cbc 46bd c268 8dbc 0fa9 c1bc
00000150: 65a1 93bd 2a53 eabd c25c f33c 13b4 92bd
00000160: 9ee2 663d 1cdd 05bb 966a 3d3d ff2b 70bd
00000170: ebd3 cfbc 2e1f 603c 3d83 33bd 065c 403d
00000180: 1002 90bc 52bd 7fbd cfa9 8b3b 3d9f a1bd
00000190: 7932 a1bd 8da2 bbbc 6d84 10bd 8128 62be
000001a0: 44b1 e6bc aba0 b3bd 3e1c 98bd bffd 31bd
000001b0: 4f9d 17bd 0582 aebd ada6 afbd 8af2 aebc
000001c0: ae14 58bd 8175 96bd 4f78 c63c 6861 5cbd
000001d0: a654 283d 0289 9c3c 247b b3bd cc6f 0bbe
000001e0: 5c43 2abd b588 d7bb a654 6bbc 93a7 9ebd
000001f0: ba20 e1bd 78d6 1fbb 18c3 9f3c cb50 dfbd
00000200: 32f0 273d e911 fabd 322f c4bc 8b19 08be
00000210: 186c 873c fa29 1abc fc8e 023d 3be3 f1bb
00000220: f5b5 0bbe f5c1 8fbc 5e9b 80bc 9219 8dbc
00000230: 1c35 15bc 9479 dabc 5a0c af3c 7371 dcbd
00000240: 0e78 21bd bd1f 31bc 074b 31bd fdd5 a1bd
00000250: ba36 1d3d 8578 8d3d 3ff2 34bd 9dd2 a3bd
00000260: c687 babd bacb 5cbd b509 053d 5b9e e2bd
00000270: cc18 2a3d 824a b1bc 19ea 28bd 684f efbd
00000280: 6a86 433a 2e84 2ebc f89b eebc 0a65 02bd
00000290: 050a 2f3d 130c f03b bde0 37bd a14a 013d
000002a0: 864c 373d 41e7 853d d80f 92bd d080 073d
000002b0: d124 6cbc 2e68 143d ab38 dc3c bb39 0b3b
000002c0: 2947 9abd 6941 a3bd 0a90 b4bc 297f ddbc
000002d0: 2317 8dbd a62f b5bd a863 19be 6e7d 09bd
000002e0: f675 583d 7c5c d6bd 8f4d d4bc 26c1 b5bd
000002f0: 1a0e 26bd cefc 023d 258f e5bd 2210 a1bd
00000300: d55f 8e3c 4c1b 37bc 63fd 6ebd 3685 08bd
00000310: f529 bfbd ac26 b13c 7e5e b1bd 0d30 98bd
00000320: 49b0 e9bd 2c9b 0abd a095 8cbd d909 153b
00000330: db28 523d 14f4 21bc 907b 44bd 7014 b7bd
00000340: ec21 28bc f822 163d 2fc7 95bc 5338 31bd
00000350: e7d4 0b3c 72fb b2bc 4593 0bbd 3c55 bebd
00000360: f0c7 55bc b88a a6bd 8423 b63c e937 98bd
00000370: b51c 15bd da45 acbb 153e 8fbd 9fcc ccbd
00000380: d01f 90bd d351 7fbd 3d57 8ebd 83a1 9abd
00000390: 8219 96bd 25eb 94bd 41b7 d3bd 2c43 46bd
000003a0: 4ffc f23c b8f2 07be 2b4e 533a ab41 32bc
000003b0: 81b3 9abd ea34 18bd 0ab1 6fbd 7767 83bd
000003c0: 9297 233d 0d85 81bd 89be 8cbd 0f62 00be
000003d0: 2789 d63c 3b1f 2abc f2ae 6ebc 2de9 08be
000003e0: df9e 78bd 99e2 47bd 5bdf 8a3c 2c81 fcbc
000003f0: 4f02 b13c e794 11bd 9a38 993c c363 f2bc
-0.04922817 -0.020170625 -0.043841988 -0.11479194 -0.026600773 -0.05367579 -0.009657107 -0.10474774
-0.07801948 -0.17352307 -0.11755222 -0.058847286 0.023852793 -0.0076896134 -0.08250377 0.054446854
0.036552526 -0.022018105 -0.16148199 -0.0024830867 0.0036592295 -0.05523895 -0.027618753 -0.04127104
0.000108233435 -0.06834556 -0.105925396 -0.04915387 -0.102849424 -0.14825976 0.018196505 -0.08192835
-0.075059064 -0.023827117 -0.0013328384 -0.056506414 -0.019953528 0.029195994 0.061253164 -0.031461924
-0.08721778 -0.061667293 -0.14936589 -0.08829262 -0.044809416 -0.050551657 0.02195205 0.027459767
-0.072544046 -0.075492635 -0.0076256627 -0.06951516 0.01721226 0.0024065732 -0.07012433 -0.08981568
-0.14132582 -0.018916292 0.02065687 0.053785745 -0.07567168 -0.08929675 -0.06308245 -0.017089166
-0.0077534555 -0.08684311 -0.0046608243 -0.11188218 -0.057996787 -0.06365687 -0.09083681 -0.086989254
0.010204629 -0.0065973336 -0.110049434 -0.033973183 -0.0043708454 -0.113085166 -0.061779983 -0.0014870029
0.025021346 -0.0485193 -0.017261866 -0.023640184 -0.07208518 -0.114416435 0.029707316 -0.07163253
0.056368463 -0.002042598 0.046244226 -0.058635708 -0.025369605 0.013679309 -0.04382633 0.04696276
-0.017579108 -0.06243641 0.004262186 -0.078917004 -0.07870955 -0.022904659 -0.03528254 -0.22085764
-0.028160699 -0.08770879 -0.07427262 -0.04345488 -0.037015256 -0.08520893 -0.08576713 -0.021355886
-0.052754097 -0.07346631 0.02422729 -0.05380383 0.041096352 0.0191083 -0.087637216 -0.13616866
-0.041568145 -0.006577576 -0.0143634435 -0.07746806 -0.1099257 -0.0024389308 0.019502208 -0.10904082
0.041000552 -0.12210447 -0.023948286 -0.13290994 0.016531035 -0.009409422 0.03187464 -0.0073818243
-0.1364363 -0.01754854 -0.015699085 -0.017224107 -0.009106901 -0.026669301 0.021368194 -0.10763826
-0.039421134 -0.01081079 -0.043284442 -0.07902143 0.03838227 0.06907753 -0.044176336 -0.07999156
-0.09107928 -0.053905226 0.03247996 -0.1106536 0.041527554 -0.021641973 -0.041238878 -0.116850674
0.0007458689 -0.010651631 -0.029127106 -0.03183464 0.042734165 0.007325658 -0.04489206 0.031565312
0.044750713 0.06538249 -0.07131928 0.03308183 -0.014413075 0.036232166 0.02688249 0.0021244127
-0.07533104 -0.0797146 -0.02204134 -0.027038174 -0.068891786 -0.08846979 -0.14979422 -0.033566885
0.05284687 -0.10466859 -0.02591589 -0.08874731 -0.040540792 0.031979375 -0.11208943 -0.07864405
0.01737968 -0.011175942 -0.058347117 -0.033330165 -0.093341745 0.021624885 -0.08660601 -0.0743104
-0.11410577 -0.03383939 -0.06864476 0.0022741465 0.051308494 -0.009884853 -0.0479694 -0.08939445
-0.010261994 0.036654443 -0.018283455 -0.043266606 0.008534647 -0.021848414 -0.034075994 -0.09293601
-0.013048157 -0.08131927 0.022233732 -0.07432539 -0.03640433 -0.0052573504 -0.06994263 -0.09999966
-0.07037318 -0.062333893 -0.06950233 -0.07550337 -0.07329084 -0.07271413 -0.10337687 -0.048403904
0.029661326 -0.13276184 0.0008060659 -0.010879914 -0.07553769 -0.037159838 -0.058518447 -0.06416219
0.03993947 -0.063242055 -0.06872279 -0.12537406 0.026188446 -0.0103834225 -0.014568077 -0.133702
-0.060698386 -0.048800085 0.016952207 -0.030823313 0.021607546 -0.035542395 0.018703748 -0.029588586

fc2.bias f4 [128]
00000000: daf6 8dbe 1a97 6abe dc21 63be 2fb5 2fbf
00000010: f141 53be ca50 0dbe 952e 8abe eadf 33be
00000020: 3a53 1840 ea06 32bf b1e6 03be b9f3 93bf
00000030: 798f 06bf d25b 05bf 5cc8 7ebe b7f0 65bf
00000040: 8b82 54bf f223 4fbe a442 a5be 3e43 51be
00000050: a947 4540 6057 fdbe 96bc 8dbe 1ab8 98be
00000060: d6d9 0abf 2c20 55bf 370e a3bf 80b7 60be
00000070: b909 58be a97c 1dbe 9f74 84be c926 14be
00000080: d1ab 8cbe c890 17be da6e 49bf 6fcb 4dbf
00000090: 3ed9 e3bd efae 43bf 7dd7 d0bd 5053 49be
000000a0: d7ea 8dbe 2aec 9cbd e913 84be 439c 3abe
000000b0: ae00 92be 3319 92bc 7ff1 7cbe fef8 14bf
000000c0: 89f3 8cbe d21c 69bf 3c14 61be dcd9 78be
000000d0: aa36 47be b960 e7bf affd 72be 7fef 88be
000000e0: ba0b d7bd 9a5c a0be 08c4 69bf ee88 8abf
000000f0: 3523 15bf 75c8 8dbf 1f3b 6ebe 60cc 3cbe
00000100: 8362 38bf 32c4 cabf 2afc 7abe 2bf0 49be
00000110: 4266 8dbe d381 8ebe ae39 87be f36f 79be
00000120: 9e96 27be a847 6cbe dea4 fdbf a4f8 71be
00000130: cacb 6ebe be4b 6abe d899 89bf eb0a 25bf
00000140: eeb7 5bbf ffb1 6bbe 9876 5dbf 7a4f 3dbe
00000150: 4e88 3cbf da46 d0be 44b2 44be 9112 e9bd
00000160: 779d 80be d798 25bf b544 cfbe d550 18be
00000170: c0a1 8dbe debd 41be ae3c bcbf 7f1a 3fbf
00000180: 09c8 13bf c52e 90be 601e 6ebe 2e36 9cbf
00000190: 6cd4 a2be 1f3b edbd d306 a8be 7283 8ebe
000001a0: 9f84 07be 390b 50bf 03ab 88be 3b30 79be
000001b0: e2db 43bf eef1 dfbf 64d6 2bbe c2d8 cbbf
000001c0: c8d7 8cbe 7e51 6ebe 50cc 88be ede5 cdbe
000001d0: f28d 9fbf 712a 85be 1c34 3bbe 9658 67be
000001e0: c052 e9bf 1e12 6ebe 4c5b 27be 3f22 67be
000001f0: 7245 9abf 123a 2a40 251e 80be 778a f2be
-0.27727395 -0.22909203 -0.22180885 -0.6863584 -0.20630623 -0.1380035 -0.26988664 -0.17565885
2.3800797 -0.695418 -0.1288097 -1.1558753 -0.5256267 -0.5209323 -0.24881119 -0.89820427
-0.8301169 -0.20228556 -0.32277405 -0.20435807 3.0824988 -0.49480724 -0.27682942 -0.29827958
-0.5423864 -0.83252215 -1.2738713 -0.21945 -0.21097459 -0.15379585 -0.25870225 -0.1446792
-0.27474836 -0.14801323 -0.7868477 -0.8038854 -0.1112542 -0.764388 -0.10197351 -0.19660687
-0.2771823 -0.07662232 -0.2579644 -0.18223672 -0.28516144 -0.017834282 -0.24701498 -0.5819243
-0.27529553 -0.910596 -0.21980375 -0.24301857 -0.19454446 -1.8076392 -0.23729585 -0.2674522
-0.105002835 -0.3132065 -0.91314745 -1.0823038 -0.58256847 -1.10768 -0.2326474 -0.18437338
-0.72025317 -1.5841124 -0.24510255 -0.19720523 -0.2761708 -0.27833423 -0.26411194 -0.24359111
-0.1636605 -0.2307421 -1.9815938 -0.23630005 -0.23319927 -0.22880456 -1.0750074 -0.64469784
-0.8582753 -0.23017119 -0.86509085 -0.18487349 -0.73645484 -0.40679055 -0.19208628 -0.113804944
-0.25120136 -0.6468634 -0.40482107 -0.14874585 -0.27662468 -0.18920085 -1.4706018 -0.74649805
-0.57727104 -0.28160682 -0.23253775 -1.2204034 -0.3180269 -0.11583542 -0.32817706 -0.2783466
-0.13234185 -0.81267124 -0.26692972 -0.24334805 -0.7650739 -1.7495706 -0.16781002 -1.5925524
-0.27508378 -0.23273274 -0.26718378 -0.40214482 -1.2465193 -0.26008943 -0.18281597 -0.22592387
-1.8228378 -0.23249099 -0.1634342 -0.22571658 -1.2052443 2.6597943 -0.25022998 -0.47371265

fc3.weight f4 [1, 128]
00000000: dc51 983c 0b71 efbb 6407 413c 3063 b8bb
00000010: 5151 9dbc 842e 883c d304 843c 9912 883c
00000020: 9869 c83b 9194 f23a 4bc7 e2bc d144 0cbc
00000030: 4726 b43c f190 de3c b904 3a3a 251d 8ebc
00000040: 750d 6abc f011 4dbc f416 fabc e35f 1ebb
00000050: 62a9 143c 61c0 0abc 25cb 133c 453d 393c
00000060: cc3c f8bb 6bb5 963c 4077 8abc 1513 543c
00000070: c292 093b 8edc a73c 4e01 a8bc 9ef0 83bc
00000080: 7bd6 bdbc 632d b73c c836 c53c b5f0 92bb
00000090: 874e 03bc 1bc0 e93a bbce d63d 368e 953c
000000a0: 63dd 8fbc 593b d4bc fb1e c13c 5227 dc3c
000000b0: ee6a 3d3b 3d0b c03c 9e3f ae3c 8662 b33c
000000c0: 5cd5 42bc b121 07bb ea21 923c 3603 f0b9
000000d0: 24d8 ca3c 398b 6fbc 277c e63c 9699 30bc
000000e0: 83bd 5ebb 5fa5 d73c 56c4 2f3b b492 3abc
000000f0: 8dd8 cebc b241 aabc f4b1 f83a a9a7 243c
00000100: 964f b1bb c06a c6bc 9a2f 09bc 5738 a23b
00000110: 7b27 d2bc 97c8 acbb 49e1 99bc 1517 a13c
00000120: 5353 f83b 13e8 f13c a08d 7fbc e467 a03c
00000130: 3fa4 7ebc ab40 b5bc fd85 cf3b 076f 62bc
00000140: d4ef d03c f2ee 82bc 6235 52bc 5a59 ad3c
00000150: 5fe1 fe3b 5634 89bc 7dc4 b5bc d6b8 183c
00000160: e73f 873c 439b a53c d80a c23b aef7 bdbb
00000170: ac4b b8bc c618 a1bc 6f17 f7bc aa24 98bc
00000180: 4d8b c63c db18 3f3c d6e8 a4bc 4312 7d3c
00000190: 2f35 86ba 5f0f cb3b 068a 67bb 683d 613c
000001a0: a3e8 1f3c 2e07 1ebc aed1 813b ad28 a6bc
000001b0: 2719 bb3c c373 87bc 6c72 4abb 62a6 9abc
000001c0: 358b 203d 9742 ddba e988 e0ba 3ba4 083d
000001d0: 86a9 823a 4898 d2bb 53db b9bc 0650 9f3c
000001e0: 3316 d8bc a27e 323c f069 e3bc b59a ac3c
000001f0: 9889 c0bc 44ae bcbb 2ffd e3bc 0aa0 d7bc
0.018593721 -0.007307177 0.011781547 -0.0056270584 -0.019203814 0.016623743 0.016115582 0.01661043
0.0061161034 0.0018507411 -0.02768292 -0.008561329 0.021990908 0.027168723 0.00070960406 -0.017347882
-0.014285435 -0.012516484 -0.030528523 -0.002416604 0.009073587 -0.008468718 0.009020601 0.011306112
-0.007575607 0.018397054 -0.016902566 0.012944003 0.0020992015 0.02049091 -0.020508435 -0.016105946
-0.023173561 0.02236051 0.024073973 -0.004484261 -0.008014328 0.0017833741 0.104886495 0.018256288
-0.01756162 -0.025907205 0.023574343 0.026874218 0.0028902846 0.023442859 0.02127057 0.021897566
-0.011891689 -0.0020619447 0.017838437 -0.0004577876 0.024761267 -0.014620596 0.028135372 -0.010778805
-0.003398747 0.026323972 0.0026819906 -0.011387516 -0.025249744 -0.02078328 0.0018973933 0.010049739
-0.0054110987 -0.024220824 -0.0083731655 0.004950564 -0.025653591 -0.0052729356 -0.018784182 0.019664327
0.0075782924 0.029529607 -0.015597731 0.019580789 -0.015542089 -0.022125563 0.0063331113 -0.013820416
0.025504984 -0.015983079 -0.01283011 0.02116077 0.007778331 -0.016748589 -0.02218842 0.009321412
0.016509963 0.020215636 0.005921703 -0.005797348 -0.02249702 -0.019665133 -0.030162541 -0.01857217
0.024236346 0.011663641 -0.020130556 0.015446248 -0.0010239239 0.0061969007 -0.003533007 0.013747551
0.009760055 -0.009645266 0.0039617633 -0.020283068 0.022839142 -0.016534692 -0.0030890955 -0.018878166
0.03919526 -0.0016880807 -0.0017130646 0.033359747 0.0009968735 -0.0064268447 -0.02268759 0.019447338
-0.026377773 0.010894449 -0.027760476 0.021069864 -0.02350311 -0.005758079 -0.027830688 -0.02632143
